models/llama2-healthver-sft/checkpoint-3/adapter_model.safetensors (safetensors, 296440 bytes, 12 tensors)

base_model.model.transformer.h.0.attn.c_attn.lora_A.weight f4 [4, 768]
000000 a0 41 84 bc dd 8d 08 bd 02 99 00 3c d9 f1 e7 3c
       -0.016144574 -0.033338416 0.00784898 0.028313564
000010 ca 30 da 3c 33 a4 c0 3c 75 41 13 bd cd 20 11 3c
       0.026634593 0.023515796 -0.035951097 0.008857918
000020 68 37 0a bc be b0 c1 bc 2d b0 2a bc 0c c7 0f bd
       -0.008436061 -0.023643848 -0.01041798 -0.035101935
000030 c9 75 cb 3c 10 09 0e 3c 58 07 31 bc 30 ed 0f bc
       0.024836438 0.008669153 -0.010804974 -0.008784577
000040 0c 6b a1 3c bc 53 bf bc 08 ac 09 bd ed 16 ee bb
       0.019704364 -0.023355357 -0.033611327 -0.0072659166
000050 db d7 d1 bc 10 f6 86 3c dd aa cf bc 42 aa 0f bc
       -0.025615623 0.016474754 -0.025350029 -0.00876862
000060 99 d4 9e bc 13 cd f9 3c 5e 96 98 bc b8 50 0d 3d
       -0.019388484 0.030493295 -0.018626388 0.034500808
000070 f2 dc 37 3c f6 e4 fd ba 3f 67 9d bc 19 6d 9a bc
       0.011222111 -0.0019370604 -0.01921427 -0.01885085
000080 9e d2 be bc 7d ce fb bc 9c 39 be 3c b3 f4 40 bc
       -0.02329379 -0.03073811 0.02322083 -0.011777091
000090 f3 0c ba bc 28 ce 80 3b 63 08 01 3d 97 37 ca 3c
       -0.022711253 0.0039308257 0.03150214 0.02468471
0000a0 38 59 11 3b 3e 5c fe bc 71 e1 0f bd 7b 68 f8 bb
       0.0022178423 -0.031049844 -0.035127107 -0.0075808144
0000b0 d6 53 d8 bc 2c 00 d7 3c 31 29 3c bc 53 ba 0f bc
       -0.026407164 0.0262452 -0.01148443 -0.0087724505
0000c0 38 a8 10 3d 43 c1 c9 bb 15 fb 7e bb 96 ff d3 3b
       0.035316676 -0.006157072 -0.003890698 0.006469677
0000d0 24 71 06 bd a4 fa 09 3d 24 ce 5d 3c fe 91 e4 bc
       -0.032822743 0.033686295 0.013537917 -0.027901646
0000e0 40 01 61 3c 15 c3 74 3c fd c8 01 3d a7 56 c8 3b
       0.013733208 0.014939089 0.031685818 0.0061138454
0000f0 c5 a7 f1 bc e6 65 9e 3c a4 2a 10 3d 87 74 06 bd
       -0.029498944 0.019335698 0.035196915 -0.032825973
000100 da 5d 29 3c 0c 2d 95 3a 3b 85 49 3b 22 03 cf bc
       0.010337317 0.0011381223 0.0030749578 -0.025270049
000110 37 ee d0 bc ab f9 c4 bb a9 67 ad 3c ad 47 d4 bb
       -0.025504215 -0.006011208 0.021167593 -0.006478271
000120 9f e0 b8 3c 31 da ab bc 82 b6 34 bc 27 e0 e0 3c
       0.022568045 -0.020978065 -0.011029841 0.027450634
000130 c5 40 2c 3c c8 c9 59 bc f7 ee c9 3b 9d c3 cc bc
       0.010513489 -0.013292737 0.00616252 -0.02499562
000140 11 d0 c7 3c ff 56 fc bc 75 ea 10 bc 95 7b b1 bb
       0.024391206 -0.030803202 -0.008844961 -0.0054163435
000150 03 eb a8 3b a9 8f 0f 3c b0 06 ec 3c d8 0b af bb
       0.0051549687 0.008762279 0.028811783 -0.005341988
000160 d2 84 23 bc 4f 4a 5f bc 81 b8 b0 3c f0 77 b1 3c
       -0.009980397 -0.013628556 0.021572353 0.021663636
000170 ee c9 26 3c 53 1d 06 bb e9 7f 83 3c c1 f6 75 3c
       0.01017998 -0.0020464256 0.016052203 0.015012444
000180 02 3f 62 3a 5a 31 63 bc 62 91 ac 3c f1 5c c6 bc
       0.0008630605 -0.013866747 0.021065418 -0.02421424
000190 14 ad 99 3c 1d 10 16 3c 0c 43 76 3b 97 56 ba 3c
       0.018759288 0.009159115 0.0037576584 0.022746367
0001a0 b9 7d 06 3c bd 9e 80 bc d2 48 09 bd da a3 9e bc
       0.008208686 -0.015700692 -0.033516712 -0.01936524
0001b0 d3 99 a0 bc 74 0a be 3a ed 93 04 3c db 8c a5 3c
       -0.0196046 0.0014498965 0.008091909 0.020208767
0001c0 bd a3 0b bd 4f 6d 98 3c cb ec 25 bc 0d df 91 3c
       -0.0340917 0.01860681 -0.010127257 0.017806554
0001d0 1d 20 0e 3c 03 a6 84 3c a1 76 c2 bb d1 68 74 bc
       0.008674649 0.016192442 -0.005934552 -0.014917568
0001e0 8d 15 14 bd 24 0b 8a bc 56 c2 10 bc 42 8b 97 3b
       -0.036153365 -0.016851015 -0.008835396 0.004624755
0001f0 fa 2f 0b bd 1f 4b 05 3d 81 2a 1d bc 87 c7 a1 3c
       -0.0339813 0.032542344 -0.009592653 0.019748462
000200 a0 d3 37 bb d8 8d 8e bb 9e 61 0a 3d ce b1 2c 3c
       -0.0028049722 -0.004350405 0.0337845 0.010540439
000210 09 80 b7 bc 05 62 03 bd 9c 01 10 bd 7c a6 9b bc
       -0.02239992 -0.0320759 -0.035157785 -0.019000284
000220 86 ee 00 3d 58 44 04 3d 68 59 03 bd a7 7d d0 bc
       0.031477474 0.03229174 -0.032067686 -0.02545054
000230 03 80 94 bb f4 1e a5 3c 5d 96 e2 3c 0e 46 e1 3a
       -0.0045318617 0.020156361 0.02765959 0.0017187016
000240 a3 58 74 bc e0 d2 45 bc 85 0b 28 3c 8f 3b 96 bb
       -0.014913711 -0.012074202 0.010256653 -0.0045847367
000250 68 6f 29 bb 00 9a 83 bc 53 65 f7 3c 89 6e 26 bb
       -0.0025853757 -0.016064644 0.030199682 -0.0025395474
000260 fc 56 f7 3c 4f 0c a1 3c 30 cb 7b 3c 86 0a 10 3d
       0.030192845 0.01965919 0.015368268 0.035166286
000270 30 34 d7 3b c6 92 03 bc b7 2d 1f bc a9 96 36 3c
       0.0065675005 -0.008030599 -0.009715489 0.011144319
000280 70 b7 7a 3b cb 7d 3f bc 0c f5 4d bb e7 3f a6 bc
       0.003825631 -0.011687706 -0.0031426577 -0.020294143
000290 83 d9 f6 3c da 94 a2 3b be c2 e0 3c d1 d3 0a bc
       0.030133015 0.004961592 0.02743661 -0.0084733525
0002a0 f1 07 9b bc f1 03 7c bb f2 cd 0c 3a 08 9b 7f 3c
       -0.018924685 -0.0038454498 0.00053712644 0.015600927
0002b0 22 d5 e0 3c 14 13 12 3d bd fe b9 bc 74 fa bb 3c
       0.02744538 0.035662726 -0.022704476 0.022946574
0002c0 68 11 b1 bb 77 d0 29 3b 0f 8f bf bb b1 9d ea 3c
       -0.0054036863 0.0025911608 -0.0058459113 0.028639646
0002d0 63 9c 1b bc 98 ac ea 38 9c f9 05 bd 97 39 09 bd
       -0.009497735 0.000111901376 -0.03270875 -0.033502188
0002e0 9d 9d 37 bc 28 98 0a 3d 4b 1c 86 bc 88 da 0a 3c
       -0.0112070115 0.033836514 -0.016370913 0.0084749535
0002f0 5d 10 74 bc 33 fe fe 3c 80 03 9e 3c 2d 46 03 bd
       -0.014896479 0.031127071 0.019288778 -0.032049347
000300 c2 a1 60 ba 2a f8 56 bb 24 28 10 3d 4b 73 2d 3c
       -0.00085690257 -0.0032801726 0.03519453 0.01058657
000310 31 9b 8c 3c 10 4f 01 bd e2 55 a4 bc 58 58 03 bd
       0.017163845 -0.03156954 -0.020060483 -0.032066673
000320 3d 8f 00 bd f6 3a 61 39 2b 09 f1 3c 90 a1 0c bd
       -0.031386603 0.00021479637 0.029423317 -0.034333766
000330 ec 86 ab bc d6 d4 1d 3c 40 6f 28 bc 65 25 a3 3c
       -0.02093836 0.009633264 -0.01028043 0.019915292
000340 69 5a 9d bb eb f2 90 bc d5 1f e5 bc 38 c7 10 3d
       -0.0048020375 -0.017693957 -0.02796928 0.03534624
000350 0d 45 3c bc cd 7b c7 bc 86 b2 fb 3c c2 22 ad bc
       -0.011491072 -0.024351025 0.030724775 -0.021134738
000360 6c 9d cb b9 e9 92 93 3c 2f 11 6c bb fd 52 ba bc
       -0.00038836466 0.018014388 -0.0036020984 -0.02274465
000370 5c 87 01 bc 7e 6a bd 3c 23 10 ac 3c 1e 14 7e bc
       -0.007905807 0.023122068 0.021003788 -0.015507726
000380 75 c9 ed 3c 1c 14 76 bc 4f 6a b2 bc 7a cb c9 3c
       0.029026726 -0.015019443 -0.021779208 0.024633158
000390 62 d2 40 bc 3a 13 05 bc a4 c4 b6 3c b1 5e af 3c
       -0.011768909 -0.00812226 0.022310562 0.021407457
0003a0 a0 c6 a1 bc 98 b0 8f 3c 86 44 55 bc 9e 57 9f bc
       -0.019748032 0.017540261 -0.013016826 -0.019450959
0003b0 23 b0 48 bb 42 81 e0 3c f6 82 c2 bc 2a e0 31 b8
       -0.0030622564 0.027405385 -0.023744088 -4.2408858e-05
0003c0 ea 70 84 bc f2 8b 0a 3d f8 f4 d4 bc 89 ef f5 3b
       -0.016167123 0.03382487 -0.025995716 0.0075053615
0003d0 f3 5e 03 bd 94 8f af bc f1 b3 50 bc e7 d8 2a 3c
       -0.032072973 -0.021430768 -0.012738214 0.01042769
0003e0 5a a4 a3 bc 37 8a 93 3b 37 26 4f bc df 59 9c 3c
       -0.01997583 0.0045025605 -0.0126433885 0.019085823
0003f0 cf b4 04 bd e1 50 2f 3c 90 1f b2 3c e1 bc fb bc
       -0.032398995 0.010700435 0.021743566 -0.030729713

base_model.model.transformer.h.0.attn.c_attn.lora_B.weight f4 [2304, 4]
000000 fd ae d1 39 9b d8 d1 39 c1 9b c9 b9 10 98 d1 39
       0.00039993963 0.0004002497 -0.00038453753 0.00039976882
000010 a7 ca d1 39 a9 9c d1 39 a6 8b ca b9 8d d1 d1 39
       0.00040014574 0.00039980307 -0.0003863249 0.00040019714
000020 ba 21 d0 b9 2a 0a d1 b9 56 a6 d1 39 8e 21 d1 b9
       -0.0003969798 -0.0003987116 0.00039987516 -0.00039888587
000030 a8 66 d1 b9 c0 e1 d1 b9 ac 9d d0 39 60 3e d1 b9
       -0.0003994007 -0.00040031783 0.00039790326 -0.0003991006
000040 ea 6d cb b9 df 47 c1 b9 ff 39 be b9 0c c4 64 38
       -0.0003880107 -0.00036865377 -0.00036282834 5.454202e-05
000050 ad 8b d1 b9 02 fd c8 b9 a0 ee c2 39 3b 18 d1 b9
       -0.00039967653 -0.00038335478 0.00037180353 -0.0003988164
000060 2d e8 c2 b9 8d 15 e6 38 9f 80 a5 39 06 82 c4 b9
       -0.00037175548 0.00010971269 0.00031567083 -0.00037480908
000070 a5 f3 cd b9 15 fb cb b9 0b b8 87 b8 23 7d cc b9
       -0.00039282176 -0.00038906248 -6.471582e-05 -0.00039003146
000080 a1 b6 d1 39 06 8d d1 39 73 3c cd b9 2a bd d0 39
       0.00039999656 0.00039968657 -0.00039145685 0.0003981379
000090 79 bd d0 b9 43 5b d1 b9 72 1e cf 39 90 b5 ce b9
       -0.0003981402 -0.00039931582 0.000395048 -0.00039426656
0000a0 c4 58 d1 b9 4a 4a cf b9 82 c3 d0 39 d4 c2 d1 b9
       -0.00039929722 -0.00039537466 0.00039818516 -0.00040008745
0000b0 be 99 d1 39 cd e8 a8 b9 21 ba ba b9 0c 85 d0 39
       0.00039978133 -0.00032216907 -0.0003561536 0.0003977198
0000c0 55 6b d0 b9 8e 8e cf b9 e4 a2 cd 39 e1 64 d1 b9
       -0.0003975282 -0.00039588328 0.0003922201 -0.00039938747
0000d0 08 ed d0 b9 e7 9f d0 b9 e4 d6 d0 39 68 1c cd b9
       -0.00039849454 -0.00039791988 0.00039832958 -0.0003912181
0000e0 fb c3 d1 39 d0 c7 d0 39 56 8f d0 b9 52 a7 d1 39
       0.00040009603 0.00039821723 -0.00039779645 0.0003998825
0000f0 66 cb ce 39 ff 5f d0 39 20 59 ce b9 58 f3 d0 39
       0.00039442925 0.00039744374 -0.00039357785 0.00039854157
000100 98 57 d0 b9 48 77 d1 b9 98 d2 d1 39 3b 4e ce b9
       -0.00039738114 -0.00039952458 0.0004002049 -0.00039349668
000110 bc 17 a8 39 69 09 89 39 33 d8 9d b9 52 c0 c7 39
       0.0003206114 0.00026137687 -0.00030106455 0.00038099528
000120 b2 ca d1 b9 fc f7 d0 b9 06 70 d1 39 78 b3 d1 b9
       -0.00040014606 -0.00039857614 0.0003994705 -0.000399973
000130 f2 41 d1 b9 1c df d1 b9 a7 0f af b9 46 84 d1 b9
       -0.0003991272 -0.00040029816 -0.00033390263 -0.00039962138
000140 36 f9 d0 39 d1 fd d0 39 68 c9 d1 b9 45 16 d1 39
       0.00039858528 0.0003986196 -0.00040013646 0.00039880179
000150 04 e6 d1 39 e8 88 d1 39 05 e5 ce b9 9d bd d1 39
       0.0004003496 0.0003996559 -0.00039462015 0.0004000486
000160 de 37 9c 39 60 5a c8 39 ec 55 ba b9 92 66 a4 39
       0.00029796263 0.00038214307 -0.000355407 0.00031356938
000170 52 4a a7 38 cf 84 b8 b9 38 08 c0 39 58 84 c8 38
       7.977024e-05 -0.00035194165 0.00036627217 9.561394e-05
000180 40 d2 d1 b9 58 eb d1 b9 0c ad d1 39 b9 8c d1 b9
       -0.00040020235 -0.0004003893 0.00039992516 -0.00039968433
000190 92 5b d1 b9 46 d8 cf b9 3c 10 d0 39 ec cc d1 b9
       -0.00039931812 -0.00039643253 0.00039684947 -0.00040016265
0001a0 d2 48 c0 39 2f 0a c2 b9 fc 99 ce b9 78 b3 c8 39
       0.0003667535 -0.0003701015 -0.0003940611 0.00038280687
0001b0 c5 ca d1 39 3f e0 d1 39 6c 9a d0 b9 0e de d1 39
       0.00040014661 0.00040030663 -0.00039787905 0.0004002903
0001c0 04 bb d1 39 97 cb d1 39 66 cd d0 b9 2f 91 d1 39
       0.00040002924 0.00040015273 -0.00039825885 0.00039971757
0001d0 28 a2 d1 b9 af 92 d1 b9 0a 9c d1 39 95 6a d1 b9
       -0.00039984402 -0.00039972874 0.00039979845 -0.00039942996
0001e0 31 c5 d1 b9 3b 3a d1 b9 50 ab d1 39 2d 7f d1 b9
       -0.00040010505 -0.00039906972 0.00039991224 -0.0003995834
0001f0 0f 1c cf 39 9a 15 d1 39 56 f4 d0 b9 a0 f1 d0 39
       0.00039503022 0.0003987968 -0.00039854896 0.00039852876
000200 11 9a d1 39 4d 47 d1 39 92 2a c6 b9 b9 0f d1 39
       0.00039978375 0.0003991671 -0.0003779722 0.000398753
000210 72 d6 d0 b9 12 7b cf b9 d8 3f d1 39 92 f9 d0 b9
       -0.00039832626 -0.0003957381 0.00039911154 -0.00039858796
000220 72 eb ca b9 02 f6 c6 b9 c9 ca cc 39 4b 4c cc b9
       -0.00038703863 -0.00037948793 0.00039061 -0.00038966755
000230 d4 99 d1 b9 56 c1 d1 b9 e7 6f cb 39 0e 83 d1 b9
       -0.00039978197 -0.00040007633 0.0003880255 -0.0003996123
000240 0a 63 cf b9 13 96 d0 b9 38 6d ca 39 bc 5b d1 b9
       -0.00039555907 -0.00039784666 0.00038609817 -0.00039931934
000250 3b 79 cf 39 c8 b6 c8 39 fe bd cf b9 e6 e7 cf 39
       0.0003957244 0.00038283155 -0.00039623672 0.00039654894
000260 85 6c d1 39 22 d9 cd 39 30 c5 cb 38 24 61 d1 39
       0.0003994444 0.00039262424 9.716523e-05 0.00039935962
000270 be cc bc b9 86 9b 6c 39 46 e0 bb 39 c8 de 9f b9
       -0.000360107 0.00022564651 0.00035834516 -0.00030492828
000280 55 a2 d1 39 26 66 d1 39 d9 4a d1 b9 24 96 d1 39
       0.00039984533 0.00039939693 -0.00039919352 0.0003997545
000290 49 70 d1 b9 68 6d d1 b9 d6 75 c5 39 cf 05 d1 b9
       -0.00039947245 -0.000399451 0.00037662563 -0.00039867914
0002a0 05 4a d1 b9 2c 34 d0 b9 51 be b6 39 01 52 cb b9
       -0.00039918735 -0.00039711723 0.00034855542 -0.00038780275
0002b0 36 d6 d1 39 4b be d1 39 bb 94 d0 b9 80 c0 d1 39
       0.00040023186 0.00040005366 -0.00039783664 0.0004000701
0002c0 38 35 d0 b9 ec e7 cf b9 c2 33 d0 39 7b ec ce b9
       -0.00039712503 -0.00039654912 0.00039711414 -0.00039467574
0002d0 2a d3 d1 b9 0f dd d1 b9 1d 01 cf 39 b9 dd d1 b9
       -0.00040020916 -0.00040028288 0.00039482946 -0.00040028783
0002e0 20 b9 d1 b9 85 a7 d1 b9 5d 33 ce 39 4e fb cf b9
       -0.00040001515 -0.00039988398 0.0003932965 -0.00039669353
0002f0 56 43 d1 b9 dd 67 d0 b9 d1 0d d1 39 fa 3a d1 b9
       -0.00039913756 -0.00039750236 0.0003987388 -0.00039907527
000300 f3 9e d1 39 3f e4 d1 39 65 da d1 b9 2a cd d1 39
       0.00039982013 0.00040033643 -0.00040026303 0.00040016446
000310 e6 fb bb b9 ab e0 bb 39 f0 8d d0 b9 c9 b7 ba b9
       -0.00035855098 0.0003583481 -0.00039778603 -0.00035613615
000320 1e 1d d0 b9 aa 74 cd b9 11 83 d0 39 a7 fa cf b9
       -0.00039694546 -0.00039187568 0.00039770504 -0.00039668867
000330 aa 6b d1 39 f1 5b d0 39 d8 0e cc b9 9d cc d0 39
       0.00039943802 0.00039741353 -0.00038920972 0.000398253
000340 9e bb d0 39 c6 6a 97 39 3f 73 d1 b9 5c 57 d0 39
       0.00039812637 0.00028880517 -0.00039949451 0.0003973794
000350 e5 bc d0 b9 80 cd d0 b9 f1 d5 ce 39 99 3d d1 b9
       -0.0003981359 -0.0003982596 0.0003945078 -0.0003990948
000360 50 a4 d1 b9 8b c7 d0 b9 3b 78 d1 39 32 91 d1 b9
       -0.0003998601 -0.00039821523 0.00039953165 -0.00039971765
000370 97 ae c5 b9 60 3b cc b9 7e 00 cf b9 72 11 cf b9
       -0.00037704848 -0.0003895415 -0.00039482483 -0.00039495114
000380 fa 91 d0 b9 88 d5 cf b9 bd 4c d0 39 2e d5 d1 b9
       -0.00039781613 -0.0003964121 0.00039730026 -0.00040022418
000390 07 9d d1 b9 29 c2 d1 b9 95 19 d0 39 0f ed d1 b9
       -0.0003998058 -0.00040008247 0.00039691912 -0.0004004021
0003a0 24 5e 88 39 f5 cc ae 39 d4 47 ed b8 47 17 b9 39
       0.00026010082 0.0003334057 -0.0001131442 0.00035303293
0003b0 56 87 d0 b9 1a c9 ce b9 e4 54 cb 39 70 dc ce b9
       -0.00039773685 -0.00039441214 0.00038782426 -0.0003945562
0003c0 18 a0 d1 39 9e e1 d1 39 21 9f c7 b9 58 df d1 39
       0.00039982866 0.00040031684 -0.00038074798 0.0004002999
0003d0 e4 8f d1 b9 52 04 d1 b9 84 12 d1 39 0b 66 d1 b9
       -0.00039970793 -0.00039866805 0.00039877382 -0.00039939614
0003e0 b9 c1 d1 b9 1c 74 d0 b9 f6 b9 d1 39 3e ad d1 b9
       -0.0004000792 -0.0003975936 0.00040002138 -0.00039992662
0003f0 4b 8f d1 b9 7a e0 d1 b9 a2 91 d1 39 12 ae d1 b9
       -0.00039970348 -0.00040030834 0.0003997209 -0.0003999328

base_model.model.transformer.h.1.attn.c_attn.lora_A.weight f4 [4, 768]
000000 bb 1b 45 3c 66 4b 91 3b c5 ef 05 3c 19 a1 0f bc
       0.012030537 0.004434037 0.008174841 -0.008766436
000010 95 fc e1 bc 4e 94 c3 bc fe 74 cd bc 5d cd 54 bc
       -0.02758626 -0.023874428 -0.0250802 -0.012988416
000020 e3 04 b5 3b a6 d1 36 3c 7f 7e fc 39 77 3a 78 3c
       0.005524264 0.0111583825 0.00048159432 0.015150658
000030 7a 7c bc bc 06 2b 0c 3d dd 08 10 3d 07 39 ad 3b
       -0.023008574 0.034220718 0.035164703 0.005286339
000040 0d 39 02 bd bb ab 05 3c 69 0f a0 bc 90 dc 1b 3c
       -0.03179269 0.0081586195 -0.019538598 0.009513035
000050 2e 8d 83 bc 39 33 55 bc 88 f2 b8 3c 35 c9 d3 3a
       -0.01605853 -0.013012701 0.022576585 0.0016157987
000060 d3 27 e6 bc 6d 50 e9 3c 0b 74 eb 3c 12 2a f5 3c
       -0.028095162 0.028480733 0.028741857 0.029927287
000070 49 39 7f bc 4f 66 04 bd 53 bd 10 3d f2 84 d5 bc
       -0.015577623 -0.03232413 0.035336804 -0.02606437
000080 52 19 92 3c 7e 21 85 3c 14 d5 10 bd e3 4f 54 3c
       0.01783434 0.016251322 -0.035359457 0.0129585
000090 92 45 25 3c 21 a6 ab 3a f2 53 d4 3c d4 b1 d8 bc
       0.010087388 0.0013095775 0.025918934 -0.026451983
0000a0 07 ba 91 3c 37 d1 51 3b b8 36 ab 3b 97 6a 95 bc
       0.0177889 0.003201557 0.005225029 -0.018239303
0000b0 25 bc 21 bc 94 e2 9a bc 6f 82 00 3d 88 2d 9b bc
       -0.009871517 -0.018906869 0.03137439 -0.01894261
0000c0 f4 0a d9 3c 4b 3b 8d 3c b2 e4 db bc fe b0 0d 3d
       0.02649448 0.017240187 -0.026842449 0.03459262
0000d0 f0 0b 61 3c d2 4f 13 bd 0c 20 bb 3c 8c ed cd bc
       0.013735756 -0.035964794 0.02284243 -0.025137685
0000e0 16 72 0d bd 19 b2 ad bb 5e 9a 38 bc 90 57 b4 bc
       -0.03453263 -0.005300772 -0.011267273 -0.02201441
0000f0 db 12 c0 3b 6d 71 d8 3c d5 c4 c6 bc a3 da 11 bb
       0.0058616227 0.026421273 -0.024263779 -0.0022255562
000100 77 53 0c bd b5 0f 08 3d 3f 3f 8d bc b8 0e a2 3b
       -0.034259286 0.033218104 -0.017242072 0.0049456023
000110 40 d1 c6 3c c6 46 f9 3c 76 bb a3 3c 85 0d f8 bc
       0.0242697 0.030429255 0.01998685 -0.030279884
000120 69 f9 9d bc b3 74 b8 3c 91 56 ea 3c aa cb 97 3b
       -0.019283967 0.022516584 0.028605731 0.004632433
000130 44 88 91 3c 1d 31 ef ba 1b fe ad 3b 51 f6 86 bc
       0.017765172 -0.001824889 0.0053098327 -0.016474875
000140 57 08 85 bc dd 61 e0 bc b9 23 97 bc 68 38 03 bd
       -0.016239328 -0.027390415 -0.018449651 -0.032036215
000150 51 1c 82 3c 94 1a 9d bc 5c 92 ba 3c 54 21 d0 bb
       0.015882643 -0.019177713 0.022774868 -0.0063516293
000160 0b e2 59 3c 57 fb 25 bc 09 bf b6 3c 19 f4 b3 3c
       0.013298522 -0.010130725 0.02230789 0.02196698
000170 88 87 23 3c b6 26 55 bc 26 03 d3 bb 70 e7 e2 bc
       0.009981044 -0.013009718 -0.0064395843 -0.027698249
000180 47 bf 82 3c eb 6e ca 3b ed b4 4b 3a 5e f3 b2 3c
       0.015960349 0.0061777732 0.00077707955 0.021844562
000190 e4 8b 02 3c 08 f0 ca bc 0a 67 f7 bc e2 fc 9d bc
       0.007967923 -0.024772659 -0.0302005 -0.019285623
0001a0 9d a6 40 3c f7 49 2d bc b3 ea 35 bc f6 0e 3f bc
       0.011758474 -0.010576717 -0.01110332 -0.011661282
0001b0 4a ad 11 bd 90 fc b3 bc 14 7b f5 bb c0 51 29 3b
       -0.035565652 -0.021971017 -0.0074914787 0.002583608
0001c0 ba 4f c8 3c d8 c3 05 bd 51 55 3b 3c 2b f7 3f bb
       0.02445208 -0.032657474 0.011433915 -0.002929161
0001d0 f2 1d f9 3c 6f b1 ee bb 10 31 7e 3c 02 72 db bb
       0.030409787 -0.0072843353 0.015514627 -0.0066969404
0001e0 75 cc 3e bc 0f f5 ae 3c 76 5f 4b bb ab 24 d1 bc
       -0.011645426 0.021357087 -0.003103224 -0.02553018
0001f0 4e a6 4a bb 33 e7 af bb fc 68 6e bc d0 d6 e5 3c
       -0.003092188 -0.0053681373 -0.014551397 0.028056532
000200 a8 f2 c7 3c 28 0d 0a bc 89 86 da 3b 1c af 13 bd
       0.0244077 -0.008425988 0.00666887 -0.03605567
000210 74 62 eb 3c 19 aa fe b9 c5 88 35 3c 87 f9 24 bc
       0.02873347 -0.00048573388 0.011079972 -0.010069258
000220 75 f4 4c bb 0c 2c ae 3c 12 36 3b bc 1e 33 0f bd
       -0.0031273637 0.021261238 -0.011426466 -0.03496086
000230 fb 48 df bc d0 5d ef bc c4 01 fb 3c 4c 5b 78 3c
       -0.02725648 -0.029219538 0.03064049 0.015158486
000240 d8 ac d7 bb eb 2f a9 bc ae ee 1a 3c df b0 0f bc
       -0.006581884 -0.020652732 0.00945632 -0.008770197
000250 32 18 11 bd a4 3f 11 bd d7 e3 01 bd bd ea 1f 3c
       -0.035423465 -0.035461083 -0.031711426 0.009760556
000260 9a 62 f3 3c 9b ca 87 bc c5 73 35 3b c9 86 25 3c
       0.029710103 -0.016576102 0.0027687412 0.010102936
000270 55 a0 43 bc bf 1a 8a 3b 1f 23 ac bb 30 f1 33 bb
       -0.011940082 0.004214614 -0.00525321 -0.0027456991
000280 f7 d8 b6 3c d0 e0 b8 3c 6d bf f1 bc f3 d9 c7 bc
       0.022320254 0.022568136 -0.029510224 -0.024395918
000290 6a 1c 84 3c b3 54 f4 bb 41 2a 55 3c 11 a2 eb bc
       0.01612683 -0.007456386 0.013010562 -0.028763803
0002a0 46 37 3b 3c 6a b8 f4 3c fc 23 57 3c c0 bc aa 3c
       0.011426752 0.029873092 0.013131138 0.020841956
0002b0 a1 15 ed 3c 5c 5e 11 bd 6a 41 dd bc 2a b7 6f 3c
       0.028940978 -0.03549038 -0.02700873 0.014631072
0002c0 27 79 2e 3b 2b 71 db bc 33 55 f9 3c 3e 41 cf 3c
       0.0026622505 -0.026787361 0.030436134 0.025299665
0002d0 fc c7 c7 3c 52 4f 99 bc de ea 02 bd da 47 9c 3c
       0.024387352 -0.01871458 -0.031962268 0.01907723
0002e0 ce 44 e2 3c 36 c0 cb 3c 44 60 21 3b d5 38 32 3c
       0.0276207 0.024871927 0.002462403 0.010877808
0002f0 e7 62 5d bc 6d 2c cd ba 36 38 0c 3d 38 80 ee bc
       -0.01351235 -0.0015653499 0.034233294 -0.029113874
000300 27 ed 04 bd ab a4 0f 3d d9 17 2b 3b 6f 50 9c 3c
       -0.03245273 0.03506915 0.0026106744 0.019081322
000310 5a 2a 95 bc ca 77 87 38 76 59 c2 3c a7 b3 0f 3c
       -0.018208671 6.459614e-05 0.023724299 0.00877086
000320 e3 1d e2 bc 01 92 04 bc 17 7d 83 3c 24 f8 6f 3c
       -0.027602142 -0.008091451 0.016050858 0.014646564
000330 d0 44 7a bb c3 7e 25 bc ae 5e 97 ba a7 57 e8 bc
       -0.0038187988 -0.010101023 -0.0011548602 -0.028362108
000340 05 14 ca 3b 8f 32 7f 3c e7 5a db bc d6 43 46 3b
       0.0061669373 0.015576019 -0.026776744 0.0030252836
000350 aa 22 81 bc 19 8f 14 bc 48 8b d2 3c cf 1d 7d bc
       -0.0157636 -0.00906732 0.02570118 -0.015449001
000360 de 4a b0 bc 04 21 36 bc 21 c5 8a bc f7 97 98 bc
       -0.021520074 -0.01111627 -0.016939702 -0.01862715
000370 d3 09 c9 3c a9 e6 f8 bc 68 07 13 3c f4 f4 c4 bc
       0.024540817 -0.030383425 0.008973934 -0.024042584
000380 b8 0a 1e 3c 75 57 25 3c dc 29 60 3a 13 15 fb bc
       0.00964611 0.010091652 0.00085511594 -0.030649697
000390 4b d8 03 3d 2d bf d0 bc c6 83 05 bc 9c 50 45 3c
       0.032188695 -0.025481785 -0.008149093 0.012043145
0003a0 f8 3c 02 3d 4f 04 09 bd 6f f3 4d 3c 7c df 92 3c
       0.031796426 -0.033451375 0.012570246 0.017928831
0003b0 43 4a a1 3c 9d 9c 01 3c 2d 68 5c ba 74 c6 92 bc
       0.019688731 0.007910875 -0.00084078574 -0.017916895
0003c0 75 34 9a 3c d8 c7 b6 b9 b9 45 a9 3c ba 02 83 bb
       0.018823842 -0.0003486264 0.02066313 -0.0039981278
0003d0 60 59 c5 bc bd 16 f9 bc 5c 0a 0c 3d 03 55 4f 3c
       -0.024090469 -0.03040635 0.034189567 0.012654546
0003e0 7b 98 20 3b 4e 36 10 3d 29 5e 0e bd 40 db dd bc
       0.0024504948 0.03520804 -0.034757767 -0.027082086
0003f0 c6 7c 01 3d cf 6c b9 3c 4f 9f a3 3c 1c 7d 7d bc
       0.031613134 0.022634892 0.019973425 -0.015471723

base_model.model.transformer.h.1.attn.c_attn.lora_B.weight f4 [2304, 4]
000000 49 02 bf b9 a0 06 c7 39 90 96 cb 39 0a 98 ce b9
       -0.00036432061 0.00037961174 0.00038831355 -0.0003940466
000010 52 8c cb b9 f7 5d 9d 38 c0 d1 d1 b9 60 a7 ca 39
       -0.00038823724 7.503846e-05 -0.00040019862 0.00038653146
000020 1a 96 cf b9 75 e1 c9 39 0f 8e d1 b9 23 4c bf b9
       -0.0003959395 0.00038505686 -0.00039969428 -0.00036487085
000030 6e c9 d1 b9 8d 94 be 39 77 38 b5 39 93 e4 ce b9
       -0.00040013663 0.00036350303 0.0003456508 -0.00039461683
000040 33 7f 35 39 4c a6 0b b9 27 ae d0 b9 b2 e3 b3 39
       0.0001730889 -0.00013318023 -0.00039802605 0.00034311187
000050 86 fc cf 39 14 06 c9 39 c0 d1 c6 39 84 6a c4 39
       0.0003967026 0.00038342236 0.0003792178 0.00037463394
000060 55 00 cf 39 62 f3 ce b9 b4 19 ba 39 6f 7a c9 39
       0.00039482364 -0.00039472716 0.00035495835 0.00038428928
000070 d8 4f ce 39 ae 62 cc b9 6f 57 d0 b9 9d 9b d1 39
       0.0003935087 -0.00038983434 -0.00039737995 0.00039979527
000080 66 9a d0 b9 9e 64 cf 39 de 74 b9 b9 89 21 ce b9
       -0.00039787887 0.00039557082 -0.00035373023 -0.00039316367
000090 35 f5 c2 39 89 da c5 b9 8f 5d c8 39 4a 69 90 39
       0.00037185257 -0.0003773759 0.0003821668 0.00027544267
0000a0 84 1f d1 39 08 33 a6 b9 3e 1b d0 39 02 1c d1 39
       0.00039887067 -0.0003170001 0.0003969315 0.00039884454
0000b0 bb d5 d0 b9 e2 5a c4 39 22 78 d0 b9 5b 03 af 39
       -0.00039832093 0.00037451746 -0.00039762357 0.000333811
0000c0 ae 03 a9 b9 d5 e5 cb 39 f2 9f d0 b9 a4 d1 ca 39
       -0.00032236933 0.00038890415 -0.0003979202 0.00038684637
0000d0 21 22 c6 b9 15 fd 70 38 d0 f7 d0 b9 e4 f2 d0 39
       -0.0003779093 5.745616e-05 -0.00039857486 0.0003985382
0000e0 75 32 b1 39 20 5d 0e b9 15 e3 c1 39 75 a5 9e 38
       0.00033797664 -0.00013576867 0.00036981018 7.564846e-05
0000f0 45 c3 92 39 8d 87 ea b8 9e e6 af b9 a7 30 a9 39
       0.00027992777 -0.00011183238 -0.00033550424 0.0003227044
000100 fc 4c ce b9 e3 9a c1 39 73 5a d0 39 06 b5 ce b9
       -0.0003934874 0.00036927228 0.00039740241 -0.00039426255
000110 d5 1b cb b9 4a df cf b9 90 b2 c7 b9 78 e3 a6 b9
       -0.00038739914 -0.0003964848 -0.00038089277 -0.00031831465
000120 40 d7 c4 39 5b 2c 9d b9 5d 93 d1 39 c1 f8 be b9
       0.00037544407 -0.0002997842 0.0003997338 -0.0003642496
000130 5d 1f ce b9 b4 f5 c2 b9 93 fa d0 b9 89 db cf 39
       -0.0003931475 -0.00037185627 -0.00039859544 0.00039645683
000140 15 77 a7 b9 a2 2c 1c 39 3d a7 c5 b9 65 5d 46 b9
       -0.00031941445 0.00014893946 -0.0003769937 -0.00018917544
000150 d9 8a c8 b9 2a c7 c6 39 ca 9c bd b9 06 7d c7 b9
       -0.00038250422 0.00037913892 -0.00036165706 -0.00038049388
000160 d4 11 d0 39 32 55 a9 38 84 e8 8e 38 0c 26 d1 39
       0.00039686135 8.074417e-05 6.814397e-05 0.00039891934
000170 f0 1c cd 39 4b ae d0 39 56 5e d1 39 98 f0 d0 b9
       0.00039122207 0.0003980271 0.00039933872 -0.00039852108
000180 d4 cc c3 b9 6d 22 9a 39 0c 9b ce b9 15 fa cb 39
       -0.00037345907 0.00029398818 -0.000394069 0.00038905503
000190 16 d7 d1 b9 09 e8 a5 39 7a 8e d0 b9 93 ce be 39
       -0.00040023838 0.00031644132 -0.00039779005 0.00036393534
0001a0 72 1d d1 b9 2f 11 d1 39 13 1f d1 39 7c dc ce b9
       -0.00039885525 0.0003987639 0.00039886739 -0.00039455655
0001b0 47 f6 ea 38 42 fa c8 b9 b9 62 d1 b9 80 f9 ca 39
       0.00011203862 -0.0003833343 -0.0003993714 0.00038714334
0001c0 69 98 d0 39 d4 ca 6f b8 e2 54 d1 39 a1 99 6d 38
       0.00039786406 -5.717094e-05 0.0003992683 5.664828e-05
0001d0 e0 64 b1 39 a8 e0 d1 b9 3d 48 cf b9 b4 a4 cc 39
       0.00033835229 -0.00040030968 -0.00039535938 0.00039032626
0001e0 00 93 d1 39 e5 53 cf b9 2e 5f a9 39 50 f1 cf 39
       0.0003997311 -0.00039544623 0.00032305106 0.00039661909
0001f0 51 53 b6 39 38 6b b7 b9 f4 29 ff 38 58 14 6b 39
       0.0003477582 -0.00034984364 0.00012167162 0.00022418925
000200 16 27 c7 b9 fc 3e cb 39 8a dc cb b9 16 e4 a4 b9
       -0.0003798536 0.00038766104 -0.00038883492 -0.00031450455
000210 8a ec d0 b9 1f a7 cf 39 ea d9 d1 39 be 49 d1 b9
       -0.00039849087 0.00039606632 0.00040025945 -0.0003991853
000220 69 b3 d0 b9 08 ce cc b9 2c 88 d1 b9 ec 61 d0 39
       -0.00039806523 -0.00039063417 -0.00039965042 0.0003974581
000230 6f 8d d1 b9 a5 a0 d0 39 8e 68 cb b9 0f d7 c5 b9
       -0.00039968963 0.0003979254 -0.00038797077 -0.00037735
000240 7e b0 d1 39 12 ac 86 39 bd c3 cf 39 ed 85 36 b9
       0.00039995083 0.00025686674 0.00039627953 -0.00017406764
000250 df d8 cd b9 90 c6 9b 39 03 c7 d0 39 1f 6d cb b9
       -0.00039262229 0.00029711844 0.00039821127 -0.0003880048
000260 60 2e cd 39 32 b7 cf b9 33 39 aa 39 97 5c 80 b8
       0.000391352 -0.00039618608 0.00032467543 -6.120762e-05
000270 70 55 d1 b9 be a5 ce 39 2e 38 d0 39 a5 de d1 b9
       -0.00039927242 0.0003941487 0.0003971471 -0.0004002947
000280 7c 9e d0 39 8f 43 c6 b9 ea 5a d1 b9 2f 7d ca 39
       0.00039790932 -0.00037815838 -0.00039931323 0.0003862171
000290 63 dd d0 39 46 20 d0 b9 13 68 a7 39 28 4e d0 39
       0.00039837798 -0.00039696897 0.00031930264 0.00039731083
0002a0 a3 81 a8 b9 a0 df cf b9 45 ca 6d 39 b6 67 8d b9
       -0.00032140044 -0.0003964873 0.00022677433 -0.00026970886
0002b0 02 9d d0 39 87 d5 cd b9 3c 69 cd 39 21 36 d0 39
       0.00039789831 -0.00039259737 0.00039179053 0.0003971318
0002c0 01 6d d0 39 43 bb c4 b9 d4 74 b8 b9 37 50 d0 39
       0.00039754066 -0.00037523554 -0.0003518226 0.00039732616
0002d0 26 99 d1 39 ba 2a d1 b9 f4 61 d1 39 d4 51 94 b8
       0.0003997769 -0.0003989542 0.00039936567 -7.0724316e-05
0002e0 bb 09 bb b9 22 26 cd 39 d6 75 c8 39 e5 f6 bb b9
       -0.0003567467 0.00039129058 0.00038234767 -0.0003585137
0002f0 2a 60 d0 39 38 e2 c8 b9 e8 7d d0 39 32 59 8a b9
       0.000397445 -0.0003831552 0.0003976666 -0.00026387867
000300 43 9b cf 39 11 eb cf b9 df 93 cb 39 2e 5e c3 39
       0.00039597796 -0.00039657255 0.0003882935 0.00037263468
000310 6d 88 c4 39 06 a3 d0 39 9a 20 d1 39 0d 98 d0 b9
       0.00037485678 0.00039794313 0.00039887876 -0.00039786138
000320 bc 80 d1 39 f8 c9 15 b9 c5 0c cf b9 ca fc cf 39
       0.000399595 -0.00014284987 -0.0003949163 0.0003967046
000330 e9 73 d1 b9 bb a3 c3 39 48 b6 ce b9 7e 41 ca b9
       -0.00039949946 0.00037315287 -0.00039427192 -0.00038577238
000340 0d a3 a9 b9 f9 3e 9a 39 95 fc cc 39 28 24 c9 b9
       -0.00032355674 0.00029420087 0.000390981 -0.00038364646
000350 86 32 80 b9 2e f3 ce 39 22 76 c4 39 87 7e ce b9
       -0.00024451705 0.00039472565 0.0003747205 -0.00039385652
000360 d7 03 d1 39 20 10 cf b9 7d 33 cf 39 70 81 d0 39
       0.00039866447 -0.0003949413 0.00039520478 0.0003976929
000370 49 dc d0 b9 93 f1 ce 39 13 e7 cf b9 ae 6e d0 b9
       -0.00039836977 0.0003947137 -0.0003965428 -0.00039755314
000380 ec fd c0 39 51 5a cf b9 89 ab d1 b9 d0 bf d0 39
       0.0003681028 -0.00039549408 -0.0003999139 0.00039815763
000390 a4 6c d1 b9 02 b5 d0 39 50 7a c7 b9 39 3b d0 b9
       -0.0003994453 0.00039807713 -0.00038047368 -0.00039716976
0003a0 a1 1b 0f b9 d4 59 cf b9 55 b6 cc b9 47 b4 cc 39
       -0.00013647835 -0.00039549044 -0.0003904576 0.0003904423
0003b0 a0 09 d0 b9 56 a6 cd 39 1c a8 d1 39 b7 a2 d1 b9
       -0.00039680023 0.00039224577 0.00039988838 -0.00039984818
0003c0 60 d9 cd 39 cc 79 d1 39 a1 b0 d1 39 80 33 d1 b9
       0.00039262604 0.00039954332 0.00039995185 -0.00039901957
0003d0 d6 ab ce b9 0a 7e d1 39 ee 02 cf 39 50 45 d0 b9
       -0.0003941941 0.00039957493 0.000394843 -0.00039724493
0003e0 28 d7 d1 b9 58 69 cd 39 22 28 d0 b9 fb f8 50 39
       -0.0004002389 0.00039179134 -0.00039702753 0.00019929178
0003f0 45 ad b3 b9 6c fd cb 39 6e e5 ba 39 f8 a4 cb b9
       -0.00034270636 0.0003890799 0.00035647623 -0.00038842089

base_model.model.transformer.h.2.attn.c_attn.lora_A.weight f4 [4, 768]
000000 b0 f9 fb 3b 36 d9 fd 3c ec 55 84 bb 9b ea ce bc
       0.007689677 0.030987363 -0.004038563 -0.025258353
000010 9a 30 d0 3a 6a ba f3 bc fd 31 ca 3c bd ed 95 3c
       0.0015883625 -0.029751975 0.02468204 0.018301839
000020 eb a2 16 bc a6 c2 02 3d e0 e3 2b 3c fe 71 e6 bc
       -0.009194116 0.031923912 0.010491341 -0.028130528
000030 2e f4 83 bc c0 fd cb ba 1e 7f 5b bc 34 ba d8 3c
       -0.016107645 -0.0015563294 -0.013397006 0.026455976
000040 e5 9c 2f bc fd e2 cb bb 8b 90 4e 3c 01 99 00 3d
       -0.010718559 -0.0062221275 0.012607704 0.031395916
000050 3c 40 bc bb 46 9b b9 3b 3a 72 e7 3c de db 03 3d
       -0.005744962 0.005664262 0.02825271 0.032192104
000060 e5 90 b8 bb b6 4d df bb ee a5 e4 bc 5c de 40 ba
       -0.005632507 -0.006814684 -0.027911153 -0.0007357353
000070 a9 b8 5c 3c 5b 40 ee 3c 5a 51 89 3c a9 d1 07 bc
       0.013471761 0.029083421 0.016762424 -0.008289733
000080 37 76 a5 3c 87 f2 10 3d 5c 10 d8 3a f1 74 01 bb
       0.02019797 0.035387542 0.0016484368 -0.001975354
000090 29 ca e3 bc 4d 5d 85 3a 88 cb 0c bc 45 f2 2d bc
       -0.027806358 0.00101749 -0.0085934475 -0.010616844
0000a0 94 44 07 bc 7b ae 0f 3d 00 15 ea 3c 41 f4 93 bc
       -0.008256096 0.035078507 0.028574467 -0.018060805
0000b0 2b 33 ca 3c ff 36 8c bc 66 75 a3 3c 82 21 89 bb
       0.024682602 -0.017116068 0.01995344 -0.0041849026
0000c0 98 3a e8 bc 40 eb 44 3b 0a 9f 81 bb 54 f7 8c bc
       -0.028348252 0.0030047446 -0.0039557265 -0.017207779
0000d0 c5 6a 81 3c 03 64 31 3b 09 6d 17 bb 38 80 1f bc
       0.015797982 0.0027067668 -0.0023105762 -0.00973516
0000e0 03 b7 62 3b 0e 90 d7 bc bc 82 12 bd de 6d 3a 3c
       0.0034593947 -0.026313808 -0.03576921 0.011378733
0000f0 e4 d2 d7 bc 0e 7f 9a bb bb f4 15 3c 7b 45 c9 bc
       -0.026345678 -0.004714853 0.009152587 -0.024569264
000100 4c 82 81 3c ed 4e 8f 3c 7d 06 06 3d 0e 50 63 bc
       0.0158092 0.01749369 0.03272103 -0.013874067
000110 c3 bd 56 3c 3f 6f 99 bc ad 53 12 3d 27 93 ce 3b
       0.013106766 -0.018729804 0.03572433 0.006304163
000120 7b 33 91 ba 0f 7e 01 3d d5 6b cc 3c 6d 73 b3 bc
       -0.0011077964 0.03161436 0.024953762 -0.021905625
000130 00 65 09 3d 2a ae 45 3c 7b 8d 7d bb d8 60 8c 3c
       0.033543587 0.01206545 -0.0038689065 0.017136022
000140 ff 31 b1 bc 20 36 b6 bc 20 9c 0b 3c 1e a5 d0 3c
       -0.021630285 -0.022242606 0.00852111 0.025469359
000150 be f6 31 3c 95 88 08 3d 03 ea 0b bd cf 4d fd bc
       0.010862051 0.03333338 -0.034158718 -0.030920891
000160 bc 16 ec 3c dc 02 db 3a 54 84 a5 3a 0e bf 3f 3c
       0.028819434 0.0016709226 0.0012627938 0.011703266
000170 c2 3d 12 bd 18 50 c5 bc 7d ea ba bc c4 d2 be 3c
       -0.035703428 -0.024086043 -0.02281689 0.02329386
000180 4d 4c 92 bc bc e1 d2 bc 9b 7c 94 bc d3 04 18 3c
       -0.017858649 -0.025742404 -0.018125823 0.009278494
000190 ed 2e 8a 3c 0b 78 74 bb 1c 88 01 3c 36 6e fb bc
       0.01686808 -0.0037302996 0.007905986 -0.030692201
0001a0 8a 6c e5 ba bd d9 62 3a 86 be 12 3d cf 9c fe 3c
       -0.0017503661 0.00086536614 0.03582623 0.031080632
0001b0 bf a7 d4 bc 59 f9 01 3d 06 64 05 3d da 18 21 ba
       -0.025958894 0.031731937 0.032566093 -0.0006145366
0001c0 f3 7b c3 3c d5 70 c7 bc c5 f6 ce bc e0 6c ec 3c
       0.023862815 -0.024345795 -0.025264153 0.02886051
0001d0 38 c5 ce bc 77 98 a5 3c 8c c1 6b bc 4e b1 c1 3a
       -0.025240526 0.020214302 -0.014389407 0.0014777572
0001e0 15 9e cf bc a4 ac eb bc 36 94 f6 3c ad 7d 06 bb
       -0.025343934 -0.028768845 0.03009997 -0.0020521686
0001f0 8e 3a 04 3d c9 9a dc bc 6d 8e a3 3c ee dd eb bc
       0.032282405 -0.026929276 0.019965375 -0.028792348
000200 23 74 9b 3b c2 00 a5 3b ca 38 30 3b e6 09 d5 bc
       0.004744069 0.0050354907 0.0026889318 -0.026005697
000210 60 69 c9 3b 64 da 96 bc 39 98 9d 3c c7 4e a8 bc
       0.006146595 -0.018414684 0.019237624 -0.020545376
000220 3d 0d b9 3c 4d 2c 82 bb fe dc 81 bc 32 ff 84 3c
       0.02258932 -0.003972566 -0.015852448 0.016234968
000230 d4 18 07 3d 66 00 92 bc 75 3d 41 3b cf c8 98 3c
       0.032982662 -0.017822456 0.0029486094 0.01865044
000240 95 8d 8f bc 87 69 03 bd ac 87 1c bc 31 ab 09 3d
       -0.017523566 -0.03208306 -0.009553831 0.033610526
000250 43 2a eb 3b 6f 46 d7 bc 06 20 9b 3c 60 2c 4f 3c
       0.007176669 -0.026278703 0.018936168 0.012644857
000260 ee 00 f7 3c f6 7f f2 bc 9c a0 bf 3c eb c7 96 3c
       0.03015181 -0.029602032 0.023392014 0.018405875
000270 a3 75 dd 3c 27 6f 99 ba b3 21 ec bc 48 e8 9d 3c
       0.027033633 -0.00117061 -0.028824663 0.0192758
000280 4c 12 ae 3c 5c 3c 60 bc 06 df b2 3b 7f 2d 81 bb
       0.021248959 -0.013686266 0.0054587154 -0.003942191
000290 9e 8f 5a 3b 12 4d f7 bc 2d 22 12 3b 34 bf c6 3c
       0.0033349763 -0.030188117 0.0022298202 0.024261095
0002a0 c8 68 bf 3b 31 d5 d4 bc 64 30 d6 3c da d7 82 3b
       0.0058413483 -0.025980564 0.026146121 0.0039930167
0002b0 de 5c 10 3d 1e 5b d7 3b 05 00 9a bc f7 12 ec 3c
       0.035244815 0.0065721413 -0.018798837 0.028817637
0002c0 f6 a1 f3 bc 1b 9b aa 3c f7 7f dd bc 19 be dd bc
       -0.029740315 0.020825913 -0.027038557 -0.027068185
0002d0 46 78 10 3d 63 e7 11 bd bd f7 c7 3c 65 57 04 3d
       0.03527095 -0.03562106 0.024410123 0.03230991
0002e0 85 b5 f5 bc 5a 5e 00 bd c7 16 a4 3c cc a7 47 3c
       -0.029993782 -0.03133998 0.020030392 0.012186002
0002f0 dc ab a8 3c b3 7d b7 3b 6f 7f 4c ba 45 8e c3 ba
       0.020589761 0.0055997013 -0.00078009715 -0.0014919719
000300 ac 3c a2 bc af 61 bb 3c 77 41 c7 bb 03 5b 61 bc
       -0.019804321 0.022873728 -0.006080802 -0.013754609
000310 b0 8e 04 3d 85 6f e8 bc 90 55 0c bd c6 f5 df 3c
       0.03236264 -0.02837349 -0.034261286 0.027338874
000320 bd c8 1b 3c 82 b1 fe 3c f7 d4 9d bc c5 46 05 bd
       0.009508309 0.031090502 -0.019266589 -0.032538194
000330 31 05 c0 3c 88 c6 e1 3b 79 7b 04 bd 14 30 de 3c
       0.023439975 0.006890122 -0.032344315 0.027122535
000340 81 b0 85 bc a3 bc b1 3b d7 b4 13 bd e9 22 09 bd
       -0.016319515 0.0054240986 -0.036061134 -0.03348056
000350 a0 04 df 3c 60 4e 8c 3c aa f1 0f bd a0 0a a5 3c
       0.027223885 0.017127216 -0.03514258 0.020146668
000360 9f cc a9 bc 4e 33 c0 bb 29 20 a4 3b ea 35 c5 3c
       -0.020727454 -0.005865491 0.0050087166 0.02407356
000370 8e f2 e5 3c a5 ce 6d bb 7c 50 14 bc 58 26 d9 3c
       0.02806976 -0.00362865 -0.009052392 0.026507542
000380 24 67 f1 bb b9 27 9d 3c 74 8e e8 bc 34 8a db 3c
       -0.0073670316 0.01918398 -0.02838824 0.026799299
000390 8e 43 16 bb 1c 13 8a bc c6 f0 f3 bc ba 11 3d bc
       -0.002292845 -0.016854815 -0.029777896 -0.011539871
0003a0 d7 98 dc 3c 17 ed e5 3c 4c c1 11 3c fb dc 0f 3c
       0.026928348 0.028067155 0.008896183 0.008780713
0003b0 7a 14 b9 3b 30 69 f9 bc 2e dc 14 3c dd cb 28 bc
       0.005648193 -0.030445665 0.009085698 -0.010302511
0003c0 2e 9f d5 bc 45 7c 50 bc d5 00 55 3b 1a 31 ab bb
       -0.02607688 -0.012724941 0.0032501717 -0.005224359
0003d0 48 21 11 3d d9 6b 77 bc eb 6a d7 bb 35 2b c7 3b
       0.03543213 -0.0151013965 -0.006574025 0.0060781487
0003e0 30 06 1c 3c 00 2f fd bb a7 10 0b bb b6 ee b7 bc
       0.00952296 -0.00772655 -0.0021219642 -0.022452693
0003f0 df 46 03 3d f3 c6 12 3d d9 29 c0 bc e2 ce 89 bc
       0.03205001 0.035834264 -0.023457455 -0.016822282

base_model.model.transformer.h.2.attn.c_attn.lora_B.weight f4 [2304, 4]
000000 50 c7 76 b9 7d 4e 96 39 5c 57 cb b9 32 77 aa 39
       -0.00023534638 0.00028668708 -0.00038784265 0.00032513734
000010 cc 9f 9b 39 3d 29 cc b9 6b b9 cf b9 0a ab d1 39
       0.00029682962 -0.00038940637 -0.00039620264 0.0003999102
000020 4d 06 d1 39 be 4a d0 39 72 33 d0 39 4c 95 cb b9
       0.0003986828 0.0003972854 0.0003971118 -0.00038830412
000030 fc 93 0a 39 04 a8 b1 39 e5 08 8f 39 ce 2c ce 39
       0.00013215834 0.00033885252 0.00027281712 0.00039324764
000040 44 ae d1 b9 7f db d1 b9 c2 4a 77 b9 bb f9 a3 39
       -0.00039993424 -0.00040027124 -0.00023583605 0.00031275846
000050 ec 4b cf 39 53 cb cb b9 a3 93 ca 39 19 c9 0d 39
       0.00039538683 -0.00038870666 0.0003863844 0.00013521723
000060 cd d9 9c 39 4a e4 cc b9 f6 0d ce 39 db b0 d1 b9
       0.00029916913 -0.0003908 0.00039301784 -0.00039995354
000070 97 2e ca 39 77 fa b0 39 53 56 d1 b9 52 90 d0 39
       0.00038563155 0.00033755947 -0.00039927903 0.0003978038
000080 70 9e ca 39 8a 8d c0 39 34 2b c3 b9 08 ef c7 b9
       0.00038646488 0.0003672655 -0.00037225487 -0.0003813433
000090 dc 01 c3 39 3a 05 bf 39 47 c5 99 b9 00 d5 c3 39
       0.00037194684 0.00036434253 -0.00029329417 0.00037351996
0000a0 c5 cb cb 39 3a dd e9 38 98 7b bc b9 b7 cf d1 39
       0.00038870997 0.000111515124 -0.0003595024 0.00040018346
0000b0 13 00 bb 39 2f 85 a1 b9 ca 63 d1 39 24 49 d0 b9
       0.00035667475 -0.00030807542 0.00039937935 -0.00039727346
0000c0 63 ac d1 b9 da 05 b6 b9 26 61 b9 39 74 54 65 b8
       -0.00039992025 -0.00034718105 0.0003535833 -5.4676508e-05
0000d0 9c 1d ce b9 f9 11 ac 39 41 53 c4 b9 c9 a3 c6 39
       -0.00039313443 0.00032819787 -0.00037446062 0.00037887532
0000e0 69 ea c3 b9 03 cb c1 b9 bc b8 98 39 00 e1 a4 b8
       -0.00037367948 -0.00036963084 0.00029129337 -7.862039e-05
0000f0 5c 8a be 39 6d 95 c7 b9 ca 44 d1 39 f0 c6 cf 39
       0.0003634271 -0.0003806757 0.00039914838 0.00039630337
000100 be 98 cf 39 37 b1 93 39 c4 08 c3 39 6c 23 d0 b9
       0.00039595918 0.0002817006 0.0003719983 -0.00039699243
000110 20 b6 cb 39 15 3b 13 39 45 c6 a4 39 cf 79 d1 39
       0.0003885487 0.00014041022 0.0003142824 0.0003995434
000120 8c 98 a7 39 2b 0b be 39 7d 45 d1 b9 0b 42 ce 39
       0.00031966378 0.00036247945 -0.0003991536 0.00039340588
000130 21 13 99 39 63 bc cd 39 62 43 c5 39 34 2a d0 b9
       0.00029196686 0.00039241006 0.00037624972 -0.00039704295
000140 f9 06 d1 b9 fa 20 c3 b9 f1 3b bc 39 70 b8 cf 39
       -0.00039868781 -0.00037217868 0.00035902814 0.00039619533
000150 73 b7 00 39 9f 88 79 39 bc 05 a0 39 3c 3b 7b 39
       0.00012275371 0.00023797386 0.0003052185 0.00023959292
000160 38 93 c8 39 8e b0 0e 39 a2 47 bf 39 bb 90 bd b9
       0.0003825666 0.00013607947 0.0003648373 -0.00036156722
000170 5a 28 d0 b9 b8 45 b8 39 aa 2f c9 b9 ec d2 6f b9
       -0.00039702916 0.0003514716 -0.0003837322 -0.0002287139
000180 5c a4 68 b9 46 11 c7 39 2a d3 c8 b9 20 4b 94 39
       -0.00022186473 0.00037969108 -0.00038304302 0.00028284732
000190 70 93 ac b9 be 26 c3 b9 2f d6 bf 39 42 37 ce b9
       -0.00032916246 -0.00037222164 0.00036589938 -0.00039332552
0001a0 be 8d b4 b9 34 ca 22 39 05 0f 9f b9 d8 bd c6 39
       -0.00034437882 0.0001552485 -0.00030338034 0.00037906948
0001b0 8e b1 cf b9 8a 0d d1 b9 28 f7 c1 39 4b 29 85 b9
       -0.00039614405 -0.00039873674 0.00036995974 -0.00025398502
0001c0 94 23 cc b9 19 82 ad b9 27 52 65 b9 2c 8f cc 39
       -0.0003893642 -0.00033094062 -0.00021869746 0.00039016583
0001d0 ba d9 d2 38 23 92 cc 39 4a 67 cc b9 20 67 d0 b9
       0.00010054135 0.00039018792 -0.00038986868 -0.00039749686
0001e0 32 ec c3 39 5a 53 bf b9 ad 4f d1 39 50 0c cd 39
       0.00037369278 -0.0003649246 0.0003992295 0.0003910982
0001f0 50 3c c1 39 78 c8 9e 39 16 1b 81 b9 f3 f6 ce 39
       0.00036856765 0.0003028547 -0.00024624978 0.00039475373
000200 86 ac bb b8 36 79 8f b8 85 20 c1 b9 91 f5 4a b9
       -8.94899e-05 -6.841349e-05 -0.00036836058 -0.00019355702
000210 cb a5 c5 39 ca f2 c6 b9 8a 33 aa 39 04 84 cf 39
       0.00037698293 -0.00037946395 0.00032463326 0.00039580476
000220 fc 9d c6 b8 f8 df b4 b9 14 a5 99 b9 fc 77 b0 39
       -9.4708026e-05 -0.00034499145 -0.00029305427 0.0003365873
000230 38 f0 aa 39 4b 6d 80 39 fb 2f a5 b9 8c b4 a1 39
       0.00032603904 0.00024495492 -0.00031507 0.0003084283
000240 60 ae cb 39 d8 0e 84 39 b8 22 c3 39 0c d0 c4 38
       0.00038849097 0.0002518806 0.00037219166 9.38476e-05
000250 fc 6e b9 39 70 cf f4 38 c4 96 c1 39 97 58 c6 39
       0.0003536864 0.00011673465 0.00036924158 0.00037831508
000260 90 b0 cf b9 30 f4 3b b9 05 b5 cc b9 68 ff c8 39
       -0.00039613666 -0.00017924677 -0.00039044782 0.00038337265
000270 31 e7 cb b9 d7 4e 04 b9 d2 89 d1 b9 f5 c0 c8 39
       -0.00038891428 -0.00012617871 -0.0003996627 0.00038290737
000280 d5 2e cb b9 80 0e bc b8 5b d9 85 b9 69 d4 d0 b9
       -0.0003875407 -8.9672394e-05 -0.0002552968 -0.0003983111
000290 a6 b7 cc 39 7b d2 7a b9 55 13 c6 39 ea ca c8 b9
       0.0003904674 -0.00023920268 0.00037779906 -0.00038298155
0002a0 e1 f2 b1 39 b3 48 3c 39 a3 29 ca 39 a9 27 c4 39
       0.0003394103 0.0001795616 0.00038559464 0.00037413582
0002b0 47 53 be 39 7c 9c 4d b8 06 f6 94 b9 67 03 cd b9
       0.0003630167 -4.9021546e-05 -0.00028412062 -0.00039103182
0002c0 ff 5b d1 b9 54 05 9d 39 b0 49 bf 39 4e f4 ae 39
       -0.0003993213 0.00029949343 0.0003648526 0.00033369887
0002d0 98 5c c8 b8 c9 81 7c b8 20 e7 b6 b9 d8 6b aa b9
       -9.55399e-05 -6.0202354e-05 -0.00034885947 -0.00032505277
0002e0 bf 18 cb b9 bc 3d b7 b9 d9 2e 90 39 a5 30 96 b9
       -0.00038737615 -0.00034950476 0.00027500725 -0.00028646472
0002f0 97 5e c0 39 ae 8a c3 b9 aa e1 d0 39 34 cf b3 39
       0.0003669157 -0.00037296623 0.00039840984 0.0003429592
000300 28 b7 5b 39 62 b5 98 39 f2 3a cf b9 dd 4c d1 39
       0.00020953699 0.0002912684 -0.00039526034 0.00039920854
000310 ba cd d0 39 ed 98 c6 b9 58 7f b4 39 40 d8 c4 39
       0.0003982613 -0.00037879442 0.00034427154 0.00037545152
000320 9f f9 b3 b9 09 d6 cf 39 1a b6 cf b9 e0 c5 d1 b9
       -0.00034327523 0.00039641585 -0.00039617793 -0.00040011015
000330 0e be c6 39 60 c2 6a 38 96 4b c1 b9 ec 1e d0 39
       0.00037907105 5.5970973e-05 -0.00036868145 0.0003969589
000340 40 1b a7 b9 fb db 15 b9 f3 60 c8 b9 92 ef d0 b9
       -0.00031873025 -0.00014291696 -0.00038219205 -0.00039851345
000350 34 b3 bc 39 a0 01 ce 39 eb 00 ce b9 60 96 37 b9
       0.0003599167 0.00039292593 -0.00039292066 -0.00017508259
000360 ee 47 c6 39 a8 c4 ce b9 3e ae d0 39 77 19 af b9
       0.00037819095 -0.00039437902 0.00039802672 -0.00033397574
000370 0b b2 cc 39 1e 70 84 39 9c 23 b8 39 fc 38 cb b9
       0.00039042564 0.00025260536 0.00035121746 -0.00038761634
000380 5e 15 64 39 52 f5 b8 39 2c 73 a7 39 88 17 ce b9
       0.00021751734 0.00035277993 0.00031938532 -0.00039308914
000390 fb f7 c4 39 27 02 7f 38 11 b6 9e 39 6a 96 6f b9
       0.00037568793 6.0798742e-05 0.00030271758 -0.0002284885
0003a0 57 ae c2 b9 c4 6b ce b9 88 74 86 b9 c6 1d d6 38
       -0.00037132457 -0.00039371673 -0.00025645294 0.00010209861
0003b0 46 1a c6 39 de de a9 39 1c 23 bb b9 6e b6 b9 39
       0.00037785078 0.0003240024 -0.00035693578 0.0003542187
0003c0 88 a9 c6 b9 8e b3 51 b9 5c 4b ce b9 3a d3 cd 39
       -0.00037891814 -0.00019998683 -0.0003934753 0.00039258023
0003d0 ca 6c 73 b9 a7 88 0b b9 f3 73 a8 b9 36 d5 d1 b9
       -0.00023214813 -0.0001330698 -0.00032129846 -0.0004002244
0003e0 cf dd cf 39 6f 19 c3 b9 37 f0 d0 39 62 c7 a3 b9
       0.00039647377 -0.00037212248 0.00039851826 -0.00031238334
0003f0 b8 d9 c5 b9 63 fb 77 b8 48 fe ce b9 dd 0a be b9
       -0.0003773698 -5.912351e-05 -0.00039480836 -0.00036247718
