models/distilgpt2-healthver-sft/adapter_model.safetensors (safetensors, 296440 bytes, 12 tensors)

base_model.model.transformer.h.0.attn.c_attn.lora_A.weight f4 [4, 768]
0	0x3abd175c	0.0014426517
1	0x3cd29fdb	0.02571099
2	0xbce28a5a	-0.027653862
3	0x3be1fd73	0.0068966686
4	0xbbad1099	-0.0052815196
5	0xbc9c9c60	-0.019117534
6	0x3cecb262	0.028893653
7	0x3cf217df	0.029552398
8	0x3c5626b4	0.013070751
9	0x3cfc0bc0	0.030767322
10	0x3c729a58	0.014807306
11	0xbc88453e	-0.01663458
12	0xbd1142de	-0.03546416
13	0x3c9020cd	0.017593766
14	0xbbf96e10	-0.0076119974
15	0x3c9c957c	0.019114248
16	0xbcbee882	-0.023304228
17	0x3c1f4bec	0.009722691
18	0xbcd84eca	-0.026404757
19	0xbc06c3b8	-0.008225374
20	0x3d1019b6	0.03518077
21	0x3cbcae73	0.023032403
22	0x3c9c6c71	0.019094678
23	0xbad611f6	-0.0016332257
24	0xbcdeaad4	-0.027181067
25	0x3cb4a8a3	0.022053069
26	0x3cd6c707	0.02621795
27	0xbabe46a4	-0.0014516902
28	0xbcb5751b	-0.022150567
29	0x3bf5d379	0.007502016
30	0x3d0de6b8	0.03464386
31	0x3b80d217	0.0039312947
32	0xbcc20fd0	-0.02368918
33	0xbb5c0a1c	-0.0033575362
34	0xbccb7899	-0.024837779
35	0x3c9825a6	0.01857264
36	0x3d0c5666	0.034262083
37	0xbca8b843	-0.020595675
38	0xbcc174e0	-0.0236153
39	0x3c684721	0.014177115
40	0xbc88af9f	-0.016685305
41	0x3c6609c8	0.014040418
42	0xbc85ea91	-0.016347202
43	0x3d0c222d	0.03421228
44	0x3b2d7fca	0.0026473873
45	0x3d13e051	0.036102597
46	0xbc757839	-0.014982277
47	0xbcfb7fef	-0.030700652
48	0x3c137982	0.009001138
49	0xbc8b971a	-0.017039824
50	0x3ccc1e56	0.024916809
51	0x3c0ffd59	0.00878843
52	0x3b8f3763	0.0043706163
53	0x3b6e5bc5	0.0036370617
54	0x3b9bcbb7	0.0047545093
55	0xbcdc9b03	-0.026929384
56	0xbc7de054	-0.0154953785
57	0x3cd31e7a	0.025771368
58	0x3c609930	0.013708398
59	0xbcd895c7	-0.026438607
60	0xbc83461f	-0.016024647
61	0x3cd2a9b9	0.025715696
62	0x3cfa1627	0.030528141
63	0x3d006161	0.031342868
64	0xbcecfbe4	-0.028928705
65	0xbcce4640	-0.025179982
66	0xbc334d43	-0.010943714
67	0x3af4607f	0.0018644481
68	0x3c5ad8ce	0.013357354
69	0x3c5308c3	0.012880507
70	0x3b4ad7eb	0.003095145
71	0x3c4e0a97	0.012575767
72	0xbc7fd2ca	-0.015614221
73	0x3bcbcaa5	0.0062192255
74	0xbc080296	-0.008301398
75	0xbc974887	-0.0184672
76	0x3d01be5a	0.031675674
77	0xbd003bcd	-0.03130703
78	0xbcd738c2	-0.026272181
79	0x3d0bf787	0.034171607
80	0xbc58e55b	-0.013238276
81	0xbce6271e	-0.028094824
82	0x3c128db9	0.008944922
83	0x3c0592e1	0.008152694
84	0xbc480c17	-0.012209914
85	0xbcc782ed	-0.024354422
86	0xbcaaca29	-0.02084835
87	0x3cac7a7c	0.021054499
88	0x3cc96048	0.024582043
89	0xbcd0563c	-0.025431745
90	0xbcb5a01a	-0.022171069
91	0xbc7f806f	-0.015594586
92	0x3cf5e1d9	0.03001492
93	0x3c2612e7	0.010136343
94	0x3cf6b6af	0.030116407
95	0xbcd74043	-0.02627576
96	0x3d010f65	0.031508822
97	0xbc1f0db3	-0.009707856
98	0x3d0e1af6	0.03469368
99	0xbc867c27	-0.016416622
100	0x3c4bd460	0.012440771
101	0xbc772f7a	-0.015087003
102	0xbc23baf2	-0.009993302
103	0x3d0d9df0	0.03457445
104	0xbd0d9ac5	-0.034571428
105	0x3bb65197	0.0055639255
106	0x3b9c393c	0.004767565
107	0xbc74b693	-0.014936107
108	0x3c9cf875	0.019161442
109	0x3c648dec	0.013949852
110	0xbc84ddb5	-0.016219
111	0x3af43c50	0.0018633697
112	0x3c3daefa	0.011577362
113	0x3cdd6dd2	0.027029905
114	0x3c1895c8	0.009313054
115	0x3b602aa2	0.0034205099
116	0x3c8f8199	0.017517852
117	0xbc366c9e	-0.011134295
118	0x3c53b067	0.012920476
119	0xbca01d9c	-0.019545369
120	0xbc88b578	-0.016688094
121	0xbd030b59	-0.031993244
122	0x3cf29bd5	0.029615322
123	0x3d02f8ba	0.031975485
124	0xbbf3a47c	-0.0074353795
125	0xbcfeaccc	-0.031088255
126	0xbcd129d6	-0.025532644
127	0x3d0b9a53	0.034082722
128	0xbc40a8e4	-0.011759017
129	0xbcd4c35e	-0.025972065
130	0x385760ad	5.135003e-05
131	0x3d115e13	0.035490107
132	0x3b1ace6b	0.002362157
133	0xbcf8b42b	-0.030359348
134	0xbcc49f5a	-0.024001766
135	0x3c94a922	0.018147055
136	0x3c395153	0.011310893
137	0xbd0a020a	-0.03369335
138	0xbc11a7ae	-0.008890076
139	0x3c694980	0.014238715
140	0x3d057219	0.032579515
141	0xbcc98daa	-0.024603684
142	0xbcb2e7df	-0.02183908
143	0xbcc1e4b6	-0.023668628
144	0x3ca42254	0.0200359
145	0x3aa24b08	0.001238198
146	0x3cf6464a	0.030062813
147	0x3c9b8b60	0.018987358
148	0xbb81eaeb	-0.003964772
149	0x3b8de7ea	0.004330625
150	0x3c02f7f4	0.007993687
151	0x3c8f31d2	0.01747981
152	0x3cd52998	0.02602081
153	0x3ca22ad5	0.019795815
154	0xbc627693	-0.013822216
155	0xbcacaa82	-0.021077398
156	0xbb4823ac	-0.003053884
157	0xbcecbd1d	-0.02889877
158	0x3c37bd23	0.011214527
159	0xbcba9434	-0.022775747
160	0xbccc4504	-0.024935253
161	0xbc8c115d	-0.017098123
162	0x3d076511	0.03305537
163	0x3d0b83f9	0.034061406
164	0x3acf302b	0.0015807202
165	0x3ca8a3e5	0.020585964
166	0xbc047b9f	-0.008086114
167	0xbcba5890	-0.022747308
168	0x3c51cfe8	0.012805916
169	0xbcb55fd8	-0.022140428
170	0x3d0068b9	0.03134987
171	0x3cde9413	0.027170217
172	0xbc615537	-0.013753227
173	0xbbb554c1	-0.005533785
174	0xbcbf22f2	-0.023332093
175	0x3c6d106c	0.014469247
176	0x39db30ac	0.00041807198
177	0xbb376217	-0.002798205
178	0x3ce798af	0.028271047
179	0x3ca6beb4	0.020354606
180	0x3bc1c77b	0.0059136725
181	0x3bdd6782	0.006756724
182	0xbba193ea	-0.004930963
183	0xbc5046b1	-0.012712167
184	0x3ce20be0	0.027593553
185	0xbcb76750	-0.02238813
186	0x3cc7f583	0.024409061
187	0xbd0c3ea1	-0.034239415
188	0x3cc14011	0.02359012
189	0xbca69bfe	-0.020338055
190	0x3c32be28	0.010909595
191	0xbcc207f1	-0.023685427
192	0xbcf89750	-0.030345589
193	0x3c214a4a	0.009844372
194	0xba8b7113	-0.0010638557
195	0xbb66e5ad	-0.0035232112
196	0x3cb026bf	0.02150285
197	0xbd08a2c5	-0.033358354
198	0x3cde75e6	0.027155828
199	0xbcdbbe61	-0.026824178
200	0xbced0e73	-0.028937554
201	0xbd12090d	-0.035653163
202	0x3b0d0f38	0.0021523964
203	0xbcee0ac0	-0.02905786
204	0xbc14ca61	-0.009081454
205	0xbb0fbcf3	-0.002193269
206	0xbc8cb9e5	-0.017178485
207	0xbc33c679	-0.010972613
208	0x3d07a258	0.033113807
209	0x3c7761b1	0.015098975
210	0xbbc6e3b5	-0.0060696253
211	0xbc6bad86	-0.014384633
212	0xbb55f96b	-0.0032649885
213	0x3b427c18	0.0029676016
214	0x3cae883d	0.021305198
215	0x3ac4f622	0.0015026967
216	0xbc9c94da	-0.019113947
217	0x3c98b98d	0.018643165
218	0x3c5c18c5	0.01343364
219	0xbd09e7ed	-0.033668447
220	0xbd0a500b	-0.03376774
221	0xbbb59ecb	-0.0055426112
222	0xbb666d98	-0.0035160538
223	0x398b8a7e	0.0002661533
224	0xbc4029f4	-0.011728752
225	0xbbe88ca2	-0.007096843
226	0x3cb591de	0.022164281
227	0x3ce1b3e2	0.027551595
228	0x3c026d93	0.007960695
229	0xbc5257de	-0.012838332
230	0xbcd88fad	-0.026435697
231	0x3d0cd928	0.034386784
232	0x3ca6422b	0.020295223
233	0x3d1139d6	0.035455547
234	0x3cf130ca	0.02944221
235	0xbb63e8b5	-0.0034776155
236	0xbc5ffc80	-0.013671041
237	0xbc0c13b3	-0.008549619
238	0xbd10d477	-0.035358872
239	0x3b8f695c	0.0043765735
240	0xbd11e5f5	-0.035619695
241	0xbc3b2e3f	-0.0114246
242	0x3c49dd0e	0.01232077
243	0x3cd01854	0.025402226
244	0x3c54945f	0.012974828
245	0x3cb3dd19	0.021956014
246	0xbca473d9	-0.020074772
247	0x3c8fba1e	0.017544802
248	0xbc1f1d28	-0.009711541
249	0xbcd6c8c2	-0.026218776
250	0x3ce82800	0.028339386
251	0x3ca1afeb	0.019737205
252	0xbcc76ee5	-0.02434487
253	0xbd13c91f	-0.036080476
254	0x3cc5bbbd	0.024137372
255	0xbcd9b70a	-0.026576538

base_model.model.transformer.h.0.attn.c_attn.lora_B.weight f4 [2304, 4]
0	0xb9d07382	-0.00039758912
1	0x39d1b0ed	0.00039995406
2	0xb9d1d0db	-0.00040019196
3	0x39d1bbd1	0.0004000352
4	0xb9d1a1dd	-0.00039984184
5	0x39cdcacc	0.00039251742
6	0xb9d1b83f	-0.0004000086
7	0x39d1793a	0.00039953907
8	0x39cf9e16	0.000395999
9	0xb9d1c8c9	-0.00040013183
10	0x39d0ce2b	0.0003982646
11	0xb9d0330c	-0.00039710884
12	0x39d10471	0.00039866896
13	0xb9d0a9da	-0.000397994
14	0x39d19452	0.00039974094
15	0xb9c34c71	-0.00037250252
16	0x39bf981a	0.00036543683
17	0x39a26b75	0.0003097911
18	0xb9a1580c	-0.00030773913
19	0xb9c2dff6	-0.00037169427
20	0x39d188e3	0.00039965575
21	0xb9cd38c8	-0.00039142952
22	0x39d09f0b	0.00039791348
23	0xb9d18032	-0.000399591
24	0x39b4ad45	0.0003446137
25	0xb9c7de9a	-0.0003812209
26	0x39b1696b	0.00033838613
27	0xb9d0bea5	-0.00039814893
28	0x39c84959	0.0003820162
29	0xb9ce1626	-0.00039307884
30	0x39ccbbdd	0.0003904988
31	0x3984cb34	0.000253284
32	0xb9d09904	-0.00039786857
33	0x39d0e94a	0.00039846665
34	0xb9d18c5f	-0.0003996817
35	0x39d0995d	0.00039787116
36	0x39cc2e59	0.00038944444
37	0xb9d0f278	-0.00039853505
38	0x39d03778	0.0003971418
39	0xb95444b0	-0.00020243484
40	0x39d14e5e	0.00039921975
41	0xb9d15b8a	-0.00039931788
42	0x39d16c8f	0.0003994447
43	0xb9bf47c9	-0.00036483843
44	0xb9d0e3cc	-0.00039842573
45	0xb98eb902	-0.00027222192
46	0xb9d1b250	-0.0003999644
47	0x39c86027	0.00038218612
48	0x39cf1d6d	0.0003950404
49	0xb9d18cfb	-0.00039968625
50	0x39d1c3d2	0.00040009484
51	0x39a394e5	0.00031200718
52	0x39ca28e1	0.000385589
53	0xb9d1af76	-0.00039994315
54	0x39cfbac0	0.00039621256
55	0xb9cd30c2	-0.00039136974
56	0xb9d131d4	-0.0003990071
57	0x39d19ae7	0.00039978998
58	0xb9d16486	-0.00039938482
59	0x39d05d8a	0.00039742544
60	0xb9d1ebb3	-0.00040039196
61	0x39ced902	0.00039453065
62	0xb9d19a48	-0.00039978535
63	0xb9cf6da5	-0.00039563808
64	0x39ce9b67	0.00039407166
65	0xb9d1044a	-0.00039866782
66	0x39d01569	0.00039688803
67	0xb9d0bf05	-0.00039815172
68	0xb9cca07b	-0.0003902948
69	0xb9d08eb8	-0.00039779185
70	0xb9c175e1	-0.00036899655
71	0x39cf69b7	0.0003956088
72	0x39d18c94	0.00039968325
73	0xb9d1e97f	-0.00040037555
74	0x39d1c010	0.00040006684
75	0xb9ce46f7	-0.00039344255
76	0x39cf07ef	0.00039488028
77	0xb9cfcff8	-0.00039637065
78	0x39d131bc	0.0003990064
79	0xb9cf5569	-0.00039545752
80	0xb9cf29ba	-0.00039513205
81	0x39d1292c	0.00039894262
82	0xb9d13230	-0.0003990098
83	0x39ca81af	0.00038625064
84	0xb9d188c7	-0.00039965493
85	0x39d1eada	0.00040038564
86	0xb9d1d262	-0.00040020334
87	0x39d01e06	0.0003969522
88	0xb8985726	-7.2641575e-05
89	0x39cf9460	0.00039592665
90	0xb9b860ec	-0.00035167427
91	0xb9c7fa34	-0.00038142654
92	0xb8cf3806	-9.880964e-05
93	0xb9cc5429	-0.00038972616
94	0x39c41872	0.00037402246
95	0x39c7681d	0.00038033808
96	0x39d1e228	0.00040032086
97	0xb9d0eee9	-0.00039850853
98	0x39d1affe	0.0003999471
99	0xb9d1d730	-0.00040023914
100	0x39d1db49	0.00040026967
101	0xb9d147b2	-0.00039917004
102	0x39d1c209	0.00040008154
103	0xb9cab6e5	-0.0003866471
104	0x389e3568	7.543975e-05
105	0x39d14b59	0.00039919725
106	0xb9c7aa46	-0.000380831
107	0xb9bf80df	-0.00036526375
108	0xb9d16e3f	-0.00039945726
109	0x39d1ddce	0.00040028844
110	0xb9d1d418	-0.0004002161
111	0x39c99645	0.00038449667
112	0xb9d0f717	-0.00039856948
113	0x39d1e4be	0.00040034013
114	0xb9d1ccca	-0.00040016166
115	0x39d0a885	0.00039798408
116	0x39d1d81d	0.00040024603
117	0xb9d1acff	-0.0003999248
118	0x39d1cd9b	0.00040016774
119	0x39268afb	0.00015882768
120	0x39d16889	0.0003994147
121	0xb9d1d28f	-0.00040020465
122	0x39d1a0f7	0.00039983515
123	0x39ce5d8d	0.00039361083
124	0xb9cda6fc	-0.0003922506
125	0x39d1e92c	0.00040037313
126	0xb9d11af6	-0.00039883674
127	0xb9cdcfe8	-0.0003925555
128	0xb9d0c272	-0.00039817725
129	0x39d1bc5a	0.0004000392
130	0xb9d14a74	-0.00039919058
131	0x39d05740	0.00039737858
132	0x39cfda03	0.00039644548
133	0xb9d18280	-0.00039960817
134	0x39d12045	0.0003988763
135	0xb9cb82f8	-0.00038816757
136	0x39cc55da	0.00038973877
137	0xb9cda708	-0.00039225095
138	0x39ca2579	0.00038556362
139	0xb9cf8448	-0.00039580674
140	0x39d15897	0.0003992959
141	0xb9d0de53	-0.00039838496
142	0x39d177b2	0.00039952766
143	0xb995f0f0	-0.00028599007
144	0x39cf2d7e	0.0003951601
145	0xb9d0e25a	-0.00039841497
146	0x39d158a0	0.00039929617
147	0xb9ca5e2d	-0.0003859861
148	0xb9d1237b	-0.0003989002
149	0x39d01208	0.00039686286
150	0xb9d0a9a1	-0.00039799235
151	0x39cbc598	0.00038866396
152	0xb9d1c37d	-0.00040009237
153	0x39d0f415	0.00039854707
154	0xb9d147e4	-0.0003991715
155	0x39d19676	0.0003997569
156	0x38bf1230	9.1109774e-05
157	0xb9c21613	-0.0003701901
158	0xb941b2f0	-0.00018472574
159	0xb980e06f	-0.0002458128
160	0xb9d07691	-0.0003976119
161	0x39d1e0ec	0.00040031166
162	0xb9d1ac48	-0.00039991946
163	0x39cea9db	0.00039417934
164	0x39cd4664	0.00039153092
165	0xb9d1a988	-0.00039989897
166	0x39d17ea8	0.00039957953
167	0xb9c835ea	-0.00038187142
168	0x39cbeccf	0.00038895613
169	0x39a7ef36	0.00032030948
170	0x39ca256f	0.00038556333
171	0xb9d00e16	-0.00039683346
172	0xb9d19d09	-0.00039980587
173	0x39d1ca18	0.00040014158
174	0xb9d1d54a	-0.000400225
175	0x39d03686	0.00039713475
176	0x39cfbec0	0.00039624237
177	0xb9d02a01	-0.00039704147
178	0x39ccf4ba	0.00039092248
179	0x39d01d07	0.0003969448
180	0x39d1b19a	0.0003999591
181	0xb9d1ed5f	-0.00040040442
182	0x39d1e432	0.00040033605
183	0xb9d0a4b1	-0.00039795556
184	0x39cc448a	0.00038960978
185	0xb9d13c9e	-0.0003990875
186	0x39d11e92	0.00039886363
187	0xb9c715a3	-0.00037972358
188	0x39d00e15	0.00039683343
189	0xb9d17bbd	-0.0003995578
190	0x39d1a1c2	0.00039984105
191	0x39c0fde6	0.00036810263
192	0xb9d15aef	-0.00039931337
193	0x39d1d948	0.00040025474
194	0xb9d1d8b5	-0.00040025046
195	0x39d19e08	0.0003998133
196	0x39bfc394	0.00036576076
197	0x39ca99d6	0.0003864306
198	0x39270cf9	0.00015931194
199	0xb9cd1b90	-0.00039121183
200	0x39d0bf4f	0.00039815388
201	0xb9cfdd2a	-0.00039646897
202	0x39d0b98e	0.000398111
203	0xb9cdb0a1	-0.00039232246
204	0xb9d14857	-0.00039917484
205	0x39d12e44	0.00039898057
206	0xb9cff274	-0.00039662758
207	0x39ce4c12	0.0003934806
208	0xb9d1723c	-0.00039948698
209	0x39c683a5	0.00037863586
210	0xb9cfad09	-0.00039611038
211	0xb9cf016f	-0.00039483185
212	0x39d00e4c	0.00039683504
213	0xb9d0df3f	-0.00039839183
214	0x39d131a6	0.00039900577
215	0xb9cd06a7	-0.00039105603
216	0x39d16993	0.00039942245
217	0xb9d18127	-0.00039959812
218	0x39d1978e	0.00039976503
219	0xb9d0b6e8	-0.00039809127
220	0x39c17f82	0.0003690683
221	0xb9d1d1d6	-0.00040019926
222	0x39c8e217	0.00038315423
223	0xb9cbbd43	-0.00038860188
224	0x39d10ab5	0.00039871564
225	0xb9cee3cd	-0.00039461107
226	0x39d1cbc4	0.00040015404
227	0xb9cb4646	-0.00038771535
228	0x39d1d094	0.0004001899
229	0xb9d19b86	-0.0003997946
230	0x39d1df22	0.00040029833
231	0xb9ca696f	-0.00038606997
232	0xb9b2634d	-0.0003402479
233	0x392cb240	0.00016469602
234	0xb99b90b8	-0.00029671728
235	0x39bfbc47	0.00036570636
236	0x39cbb00a	0.00038850337
237	0xb9d0fa23	-0.00039859218
238	0x39cd962e	0.0003921254
239	0xb9ccefc6	-0.00039088557
240	0xb9d02714	-0.00039701967
241	0x39d1db89	0.00040027153
242	0xb9d1d0a4	-0.00040019036
243	0x39d014f0	0.0003968845
244	0x39d121ee	0.00039888866
245	0xb9d17bd5	-0.00039955848
246	0x39d14ea9	0.00039922193
247	0xb9c26489	-0.00037077468
248	0x39d1e029	0.000400306
249	0xb9d1afd6	-0.00039994594
250	0x39d17b02	0.00039955234
251	0x39bc4728	0.0003591117
252	0x39d10ac6	0.00039871613
253	0xb9d11ce5	-0.00039885115
254	0x39d1a39f	0.00039985494
255	0xb9cf7a5a	-0.00039573276

base_model.model.transformer.h.1.attn.c_attn.lora_A.weight f4 [4, 768]
0	0x3c8f5f6e	0.01750156
1	0xbcb2c0d2	-0.02182046
2	0x3c594b7e	0.013262628
3	0xba0e3be7	-0.0005425796
4	0xbc48c27f	-0.012253403
5	0xbd0d0dbb	-0.034436923
6	0xba8865c1	-0.0010406302
7	0xbcdfa4f1	-0.02730033
8	0x3ce4174f	0.027843146
9	0x3d0d6864	0.034523383
10	0xbc886080	-0.016647577
11	0x3cf2c906	0.029636871
12	0xbc83fc6c	-0.016111575
13	0xbc2ec994	-0.010668177
14	0x3cec399a	0.02883606
15	0xbccaaf9e	-0.024741944
16	0xbc14018d	-0.009033573
17	0x3a628bc9	0.00086420454
18	0xbc9a163b	-0.018809428
19	0xbd018fae	-0.031631164
20	0xbcee19c5	-0.029065022
21	0xbc54bb60	-0.012984127
22	0x3c276795	0.010217567
23	0x3c10930d	0.008824122
24	0xba2e81e9	-0.00066569314
25	0x3ccb4cb2	0.024816845
26	0x3d033436	0.032032214
27	0x3ca1a33f	0.019731162
28	0xbc9ace6f	-0.018897263
29	0xbd06fb20	-0.032954335
30	0xbc62b650	-0.013837412
31	0xbd07dd60	-0.033170104
32	0xbce05b82	-0.027387384
33	0xbbf51e64	-0.0074804295
34	0x3c872331	0.016496273
35	0xbcda57c0	-0.02665317
36	0xbb8bb74e	-0.004263795
37	0x3cebd934	0.028790094
38	0x3cf0041d	0.029298836
39	0xbd04a7fd	-0.03238677
40	0xbc846f62	-0.016166393
41	0x3ceb0f92	0.028693948
42	0xbc06e137	-0.008232406
43	0x3c2b9e50	0.010474756
44	0x3c149c56	0.0090704765
45	0xbd053d04	-0.032528892
46	0x3cf11ed1	0.02943364
47	0x3c30baca	0.0107867215
48	0x3c9e4317	0.0193191
49	0x3c87c8a3	0.016575163
50	0x3d03170c	0.0320044
51	0x3d0a1061	0.033707026
52	0xbc29a139	-0.01035338
53	0x3b166630	0.0022949092
54	0xbcf835f9	-0.030299174
55	0xbd0b38df	-0.033989783
56	0x3cad3dab	0.02114757
57	0xbd107391	-0.035266463
58	0xbcf1ce02	-0.029517177
59	0x3d03c13c	0.032166705
60	0x3c49c931	0.012316034
61	0xbd0c6136	-0.034272395
62	0xbd09ea67	-0.03367081
63	0xbc27d80f	-0.0102443835
64	0xbd0d72ef	-0.034533437
65	0x3cf79b5b	0.030225446
66	0xbcc6183f	-0.024181483
67	0xbc78bd8c	-0.01518191
68	0xbc9fa605	-0.019488344
69	0x3c3ca36c	0.011513572
70	0xbc9d70a6	-0.019218754
71	0xbc665ad7	-0.014059744
72	0xbd087def	-0.033323225
73	0xbaf9c661	-0.0019056314
74	0xbcc56f3a	-0.024100889
75	0xbcdab0f3	-0.026695704
76	0x3c09b68f	0.008405342
77	0xbce26177	-0.027634365
78	0x3d027854	0.031853035
79	0xbcde7ae2	-0.027158204
80	0xbc029da4	-0.007972155
81	0x3b2b5036	0.0026140339
82	0xbd074cb0	-0.03303212
83	0xbb70dbb6	-0.0036752052
84	0xbbac8b5c	-0.0052656364
85	0xbc011c08	-0.007880218
86	0xbd020901	-0.031746868
87	0xbc8e159d	-0.01734429
88	0x3cc4747d	0.023981327
89	0xbc8caa20	-0.017170966
90	0x3c47d4e9	0.012196758
91	0xbb86e647	-0.0041168067
92	0xbb294da6	-0.0025833636
93	0x3cf9f463	0.03051204
94	0x3ca20ed8	0.019782469
95	0xbcc58724	-0.024112292
96	0xbcc53cf7	-0.024076922
97	0x3c940e42	0.018073205
98	0x3d04d334	0.03242798
99	0xba96044d	-0.0011445374
100	0xbcd6fad8	-0.026242658
101	0xbc8d817f	-0.017273663
102	0xbc0052bf	-0.007832228
103	0xbc5de1a9	-0.013542571
104	0xbbcb5ffd	-0.006206511
105	0xbcad6909	-0.021168249
106	0x3c26117c	0.010136005
107	0x3cb28bf6	0.021795254
108	0x3c702df0	0.01465939
109	0x3cf89cc9	0.030348198
110	0x3ce32587	0.027727855
111	0xbd0d7de4	-0.034543887
112	0x3c8a4c9a	0.01688223
113	0x3c8bc2c4	0.017060645
114	0xbcc76d86	-0.024344217
115	0xbca0bf37	-0.019622428
116	0x3b3e14b4	0.002900404
117	0xbb809c63	-0.0039248927
118	0xbc8d6e84	-0.017264612
119	0xbd13078e	-0.035895877
120	0xba8d68e4	-0.0010788706
121	0xbc28c37f	-0.010300516
122	0x3c5d0aef	0.013491376
123	0x3b826075	0.0039787837
124	0xba37b054	-0.0007007171
125	0xbc2b6723	-0.010461601
126	0xbcd53231	-0.02602491
127	0x3bac9ca5	0.005267697
128	0xbcd82b7c	-0.026387922
129	0x3b87b69b	0.0041416413
130	0xbd002f26	-0.031294964
131	0x3c39fce2	0.011351796
132	0xbce99a00	-0.028515816
133	0xbc41b710	-0.011823431
134	0xbb738efb	-0.003716408
135	0x3ca617ee	0.020275082
136	0xbd0e1476	-0.03468748
137	0xbc3dc77b	-0.011583204
138	0x3bcaf9df	0.0061943377
139	0xbcdabeb1	-0.026702257
140	0x3d0cf3de	0.034412257
141	0xbcd043b5	-0.02542291
142	0x3c67d784	0.014150504
143	0x3d0b736c	0.03404562
144	0xbc12cf90	-0.00896062
145	0xbd088e44	-0.0333388
146	0x3bf09b5d	0.0073427395
147	0x3c88ef68	0.01671572
148	0xbc598e87	-0.01327861
149	0xbcd0545e	-0.025430854
150	0xbce0da2a	-0.027447779
151	0xbc53dcea	-0.012931088
152	0x3c8eff82	0.01745582
153	0x3b671f9b	0.003526664
154	0x3c9bb6ae	0.019008007
155	0x3d1001f3	0.03515811
156	0xbcc2ce6f	-0.023780076
157	0x3cbde084	0.023178346
158	0xbc350f6f	-0.011051043
159	0x3c863334	0.016381837
160	0x3cd64814	0.026157416
161	0x3b740e46	0.0037239953
162	0xbd0f5b4d	-0.03499918
163	0xbd09d75f	-0.03365266
164	0x3cd0e478	0.025499567
165	0x3c23af76	0.009990564
166	0x3c177e4b	0.009246419
167	0x3ca32018	0.019912764
168	0x3cd9470a	0.026523132
169	0x3c9e0ff5	0.019294718
170	0xbd01bcb5	-0.031674106
171	0x3b292e7d	0.0025815063
172	0xbbe035c5	-0.0068423473
173	0xbb8fb770	-0.004385881
174	0xbbeece0b	-0.007287746
175	0x3c70c106	0.014694458
176	0xbce9fa9c	-0.028561883
177	0x3c9833ea	0.018579442
178	0xbce0c526	-0.027437758
179	0xbb49c243	-0.0030785955
180	0xbb554f6f	-0.0032548567
181	0xbd0b684f	-0.034035023
182	0x3d06311c	0.032761678
183	0x3bc5aa5b	0.006032271
184	0xbcb85f1f	-0.022506295
185	0xbc9b2c8f	-0.018942146
186	0xbc6871cb	-0.014187287
187	0x3c9a39bd	0.01882636
188	0x3c01fee2	0.007934304
189	0x3c99ec28	0.018789366
190	0xbcdc758a	-0.026911516
191	0xbcaba0b3	-0.02095065
192	0xbca6c6f4	-0.02035854
193	0x3b50c163	0.0031853549
194	0xbc9c6763	-0.019092267
195	0xbc891369	-0.016732888
196	0x3cbfe02e	0.023422327
197	0x3b9392d0	0.0045035854
198	0x3cbc088c	0.022953294
199	0xbb8e93c4	-0.004351111
200	0xb8207382	-3.8254548e-05
201	0x3ca10acf	0.019658474
202	0x3cae0bfd	0.02124595
203	0x3c0c2a60	0.008555025
204	0xbc0c762c	-0.008573096
205	0x3cf41103	0.029793268
206	0xbc714cef	-0.014727815
207	0x3d137b76	0.036006413
208	0xbcae8a2c	-0.02130612
209	0x3cabac6a	0.020956237
210	0x3cc1336a	0.023584086
211	0x3c27a99b	0.010233308
212	0xbc995c24	-0.018720694
213	0x3c1c4023	0.009536776
214	0x3a569f4e	0.00081871904
215	0x3c1a2876	0.009409061
216	0xbcd6a5f4	-0.02620218
217	0xbcc0da5c	-0.023541622
218	0xbcd9f274	-0.026604868
219	0xbcda163c	-0.02662193
220	0xbc7ff495	-0.015622278
221	0x3c23f278	0.0100065395
222	0xbb756a36	-0.003744734
223	0x3c96d2f6	0.01841114
224	0x3c5e57eb	0.013570766
225	0x3b90079b	0.004395438
226	0xbcfaac04	-0.030599602
227	0x3d10a719	0.035315607
228	0xbc39ad6a	-0.011332849
229	0xba209607	-0.00061258714
230	0xbb8dc9d5	-0.004327039
231	0xbce33f4f	-0.027740149
232	0x3bc357b7	0.005961384
233	0xbb9ec783	-0.004845561
234	0xbc950ba1	-0.018194022
235	0xbba449da	-0.0050136866
236	0xbc6a7b2d	-0.014311594
237	0xbc39e178	-0.01134526
238	0x3bbf07e9	0.0058298004
239	0x3c841935	0.0161253
240	0x3cb58f66	0.022163104
241	0xbcfd6648	-0.03093256
242	0x3c96b784	0.018398054
243	0x3c79a23f	0.015236436
244	0xbae21799	-0.0017249464
245	0xbca18eaf	-0.019721357
246	0xbc126561	-0.008935303
247	0xbc2e5773	-0.010640967
248	0xbc94942a	-0.018137056
249	0xbc06d330	-0.008229062
250	0xba16f8cc	-0.00057591195
251	0x3b972565	0.004612612
252	0x3cdff453	0.027338183
253	0xbcd976cf	-0.02654591
254	0xb99bb24c	-0.00029696745
255	0xbc2557ff	-0.010091781

base_model.model.transformer.h.1.attn.c_attn.lora_B.weight f4 [2304, 4]
0	0xb9b8a2b4	-0.00035216438
1	0x39cf2b6c	0.00039514469
2	0x38937d0d	7.032799e-05
3	0x39cca276	0.00039030955
4	0x39d1630a	0.00039937376
5	0xb9c13bf2	-0.0003685649
6	0xb9cf5fbe	-0.0003955345
7	0xb8626645	-5.3977845e-05
8	0x39d052ea	0.00039734627
9	0xb9d1507e	-0.00039923558
10	0xb9caf2d5	-0.00038709366
11	0xb9d07874	-0.00039762596
12	0xb9c7318e	-0.0003799316
13	0x39d1c85a	0.0004001286
14	0xb9d15dbe	-0.0003993343
15	0x39d05f24	0.00039743737
16	0x39cd4313	0.0003915062
17	0xb9c980e6	-0.00038433744
18	0xb9d1986a	-0.00039977144
19	0xb9cef418	-0.00039473246
20	0xb9c3c034	-0.000373365
21	0xb9ace594	-0.00032977446
22	0x39d19f83	0.00039982432
23	0xb9ccc9f3	-0.00039060376
24	0xb98fdb2d	-0.00027438384
25	0xb9cea3aa	-0.0003941332
26	0x39d0d15e	0.00039828842
27	0xb9a2ef7e	-0.00031077483
28	0x39d14a16	0.00039918785
29	0xb9d1be6b	-0.0004000546
30	0xb9cc652a	-0.00038985285
31	0x39cecd4c	0.0003944434
32	0x38529990	5.0210918e-05
33	0x39d18d59	0.000399689
34	0xb9d12b61	-0.00039895906
35	0x39b0310f	0.00033605887
36	0xb9c52482	-0.00037601969
37	0xb94d92f4	-0.00019605068
38	0x39d02197	0.00039697878
39	0x39bd7186	0.0003613347
40	0x39d05db3	0.00039742663
41	0xb9d0a324	-0.000397944
42	0x39d0f4b0	0.00039855158
43	0xb9d196a8	-0.00039975834
44	0x39cfbfe2	0.0003962508
45	0xb9c8a3d1	-0.00038269025
46	0xb9d1427d	-0.00039913124
47	0xb9b5a650	-0.00034646923
48	0x39d064b5	0.00039747884
49	0xb9d03595	-0.00039712773
50	0xb9ce056b	-0.00039295419
51	0xb998a396	-0.0002911358
52	0x39d1e244	0.00040032167
53	0xb9d0565c	-0.00039737194
54	0xb9cce2af	-0.00039078805
55	0xb9353f49	-0.0001728508
56	0x3877d385	5.9086382e-05
57	0xb9161f01	-0.00014316665
58	0x39d1661d	0.00039939667
59	0xb9bb4c39	-0.0003572421
60	0x39d07d95	0.00039766417
61	0xb9caae09	-0.0003865811
62	0x38ee7fc0	0.0001137252
63	0xb9ce95fa	-0.00039403123
64	0xb9d04506	-0.00039724278
65	0x39d172ec	0.0003994921
66	0x39cb23b0	0.00038745767
67	0x39c69a1e	0.0003788033
68	0xb9cee20e	-0.00039459806
69	0x39bd1975	0.00036067856
70	0xb9cbe22b	-0.00038887686
71	0x39d0f808	0.0003985765
72	0x38ec8884	0.00011278785
73	0x39c48544	0.00037483324
74	0x39d049b6	0.0003972777
75	0x39ba4723	0.00035529686
76	0x39d1c998	0.00040013785
77	0xb9cfb52e	-0.00039617106
78	0xb9d1d35a	-0.00040021056
79	0xb8c616be	-9.445612e-05
80	0xb8821ab2	-6.2038554e-05
81	0x38a58100	7.891841e-05
82	0xb9cb605a	-0.00038790965
83	0xb9cf04f6	-0.00039485813
84	0xb9ccd45e	-0.00039068138
85	0x39ca8578	0.00038627884
86	0xb9c99996	-0.00038452138
87	0x3939bf66	0.00017714276
88	0x39d010fc	0.00039685506
89	0xb9ce2ce2	-0.00039324822
90	0x39ca131a	0.00038542674
91	0xb9c6547a	-0.00037828443
92	0xb9d19dca	-0.00039981148
93	0x39d10e23	0.0003987412
94	0x39d0cd08	0.00039825612
95	0x39c8b6ec	0.0003828326
96	0x39cf8506	0.00039581227
97	0xb9cbd3a6	-0.00038876868
98	0xb9ce13e4	-0.00039306202
99	0xb9c5a9d4	-0.000377013
100	0x39cf0d17	0.0003949187
101	0xb9be27b7	-0.00036269214
102	0xb9d1029a	-0.00039865525
103	0xb9a64d10	-0.00031719403
104	0xb9c1c1b8	-0.0003695616
105	0x39cd9256	0.00039209676
106	0x3924496d	0.00015667612
107	0xb9cd2af8	-0.0003913266
108	0x39cf9208	0.00039590918
109	0xb9d01a40	-0.0003969241
110	0xb9d1e77b	-0.00040036053
111	0xb9d02db8	-0.00039706915
112	0xb9bd9237	-0.00036157828
113	0xb8701d84	-5.7247948e-05
114	0x39cebe30	0.00039433083
115	0xb9c9cfd5	-0.00038492554
116	0x39cec902	0.00039441144
117	0xb9d02b40	-0.00039705075
118	0xb9d0a65a	-0.00039796793
119	0xb9cc857a	-0.0003900936
120	0x39c353db	0.00037255776
121	0xb9ccce56	-0.00039063644
122	0x39d12693	0.00039892326
123	0x398d8832	0.0002699509
124	0x399f57bd	0.00030392213
125	0x39a576be	0.00031559722
126	0x3904b31f	0.00012655229
127	0x39c40209	0.0003738555
128	0x39d1a6ad	0.0003998777
129	0x39811b28	0.0002462503
130	0xb9c954c5	-0.00038400866
131	0xb9d0341a	-0.0003971167
132	0xb9d159e6	-0.00039930566
133	0x39d1898c	0.00039966067
134	0xb9d11c36	-0.00039884605
135	0x39cba4f1	0.00038842068
136	0x39d1438b	0.0003991391
137	0xb9d126b8	-0.00039892434
138	0xb9d14bbb	-0.0003992001
139	0xb9cff0c2	-0.00039661495
140	0x396c7f91	0.00022554236
141	0xb996c855	-0.00028759488
142	0xb9cc1088	-0.0003892223
143	0xb9cc5fc6	-0.0003898127
144	0xb9c88a60	-0.0003825007
145	0xb9bb4916	-0.00035721873
146	0x39d1a8f8	0.00039989478
147	0xb9c2ee3b	-0.0003718006
148	0xb9cc73c0	-0.00038996153
149	0x39cf246d	0.00039509256
150	0xb9bb3d06	-0.00035712885
151	0x39cd7b0a	0.00039192318
152	0xb97c280e	-0.00024047514
153	0xb9ccf093	-0.00039089154
154	0x39d0cf70	0.00039827405
155	0xb9d0bfed	-0.00039815847
156	0xb9d1d430	-0.00040021678
157	0x39d1ddc8	0.00040028826
158	0xb9ce5f64	-0.00039362453
159	0x39cf0147	0.00039483068
160	0xb8f95230	-0.00011888554
161	0xb9cd470c	-0.0003915358
162	0xb95c131a	-0.00020987951
163	0x39b6fbdb	0.00034901392
164	0x39cf6c05	0.00039562598
165	0xb9d1cdd8	-0.00040016952
166	0x39d1343f	0.00039902513
167	0xb9cca008	-0.00039029145
168	0xb9cbd4d4	-0.00038877747
169	0x39a49809	0.00031393793
170	0x393f5579	0.0001824702
171	0x39a90f20	0.0003224546
172	0x39c0eb95	0.00036796616
173	0xb9cbb360	-0.00038852822
174	0x39d12583	0.00039891535
175	0xb9c2f6f9	-0.00037186572
176	0x39cf2ce8	0.00039515574
177	0xb9cfe99e	-0.00039656175
178	0x39d19295	0.000399728
179	0xb9ccd4a9	-0.00039068356
180	0xb9d03558	-0.00039712596
181	0xb910a17b	-0.00013793066
182	0x39d1afb0	0.00039994484
183	0x39c2dbae	0.00037166238
184	0x399c99c6	0.0002986921
185	0x39d0d4b1	0.0003983132
186	0xb9cd0e9c	-0.00039111532
187	0x3894c95f	7.094698e-05
188	0xb9c8e6f1	-0.00038319037
189	0x39c8c7e0	0.0003829589
190	0x39d0dab4	0.00039835798
191	0xb97d1665	-0.00024136303
192	0x39b986a8	0.00035386276
193	0xb9ce77d8	-0.00039380672
194	0x39cfcaaf	0.00039633128
195	0xb9b3a72b	-0.0003426609
196	0xb9d1b048	-0.00039994926
197	0x39d11a76	0.000398833
198	0x39d07462	0.00039759564
199	0xb9c4cbfe	-0.0003753602
200	0x39cdbac6	0.00039239804
201	0xb9cea138	-0.000394115
202	0x39cd7124	0.00039184943
203	0xb9d1521d	-0.00039924766
204	0x3947bb53	0.00019047903
205	0x39c5fb5c	0.00037762045
206	0xb9d0617a	-0.00039745477
207	0x39c9a43e	0.00038460077
208	0xb9ccdab6	-0.00039072864
209	0x39cf7b54	0.00039574003
210	0xb9c2eb56	-0.00037177902
211	0x39d0d129	0.00039828688
212	0xb9cc6196	-0.0003898262
213	0x39cd6b78	0.00039180717
214	0x39c87e03	0.0003824086
215	0x39780f85	0.00023656905
216	0x39ce26b8	0.0003932023
217	0xb9d0e6dc	-0.00039844855
218	0x39d16b9f	0.0003994377
219	0xb9d138aa	-0.00039905804
220	0xb9ce126c	-0.00039305107
221	0x39d18d7a	0.00039968995
222	0xb9d158df	-0.000399298
223	0x39cdd85b	0.00039261844
224	0x39d187dc	0.0003996481
225	0xb9d1c384	-0.00040009257
226	0xb9d10e38	-0.0003987418
227	0xb9c6253a	-0.0003779324
228	0xb9c647a7	-0.00037818888
229	0x39d1e73a	0.00040035864
230	0xb9d14502	-0.00039915
231	0x39c6305f	0.00037801542
232	0x39cd657a	0.00039176253
233	0xb9bdf350	-0.0003623017
234	0x38e462ea	0.000108903114
235	0xb96784a3	-0.00022079288
236	0xb9d1bcc2	-0.00040004222
237	0x39d09ab6	0.0003978812
238	0xb9c804d1	-0.0003815056
239	0x39d09ef2	0.00039791275
240	0xb9d1933f	-0.00039973293
241	0x39d18bd3	0.00039967764
242	0x39d0e44e	0.00039842952
243	0x390583d6	0.00012732981
244	0xb9d0a9af	-0.00039799276
245	0x39d15754	0.0003992865
246	0x39d076d0	0.00039761374
247	0xb9c6f281	-0.00037946182
248	0x39cf8e4b	0.00039588133
249	0xb9cd2267	-0.0003912628
250	0xb9d18e68	-0.00039969687
251	0xb9cc7c3f	-0.00039002483
252	0xb9d15908	-0.0003992992
253	0x39d1cb09	0.0004001486
254	0x39c99e5a	0.0003845569
255	0xb9cd809c	-0.00039196468

base_model.model.transformer.h.2.attn.c_attn.lora_A.weight f4 [4, 768]
0	0x3cf7b2ca	0.03023662
1	0xbc265536	-0.010152152
2	0xbd001c03	-0.031276714
3	0x3bc49b07	0.005999926
4	0x3c34531a	0.011006141
5	0x3bebdb50	0.007197775
6	0x3c4f9162	0.012668939
7	0xbcb857b3	-0.022502756
8	0x3c5a2ecb	0.01331682
9	0xbd0940e9	-0.03350917
10	0x3d0b29b7	0.03397533
11	0xbca5c288	-0.020234361
12	0x3cc3d5b9	0.023905622
13	0xbca84d3d	-0.020544643
14	0x3cea2b60	0.028585136
15	0x3b5e8dd4	0.0033959048
16	0xbb467f39	-0.0030288233
17	0xbc23fbaf	-0.0100087365
18	0xbcf9f260	-0.030511081
19	0xbc43a961	-0.011942239
20	0xbc818e4a	-0.015814919
21	0xbbd10311	-0.0063785394
22	0x3cc01b40	0.023450494
23	0x3d11fba4	0.035640374
24	0xbbe68440	-0.0070348084
25	0x3cd980a2	0.026550595
26	0x3bc0949e	0.0058770915
27	0x39aabb06	0.0003256427
28	0xbce36e62	-0.027762596
29	0xbd0dc9db	-0.034616333
30	0xbd09b7f6	-0.033622704
31	0xbc934dbc	-0.017981403
32	0x3cc044b5	0.023470262
33	0xbccb5f93	-0.024825847
34	0xbc32c620	-0.0109114945
35	0x3d0101af	0.031495746
36	0x3bc9acdf	0.006154641
37	0x3d0f931e	0.03505241
38	0xbcfa9286	-0.030587446
39	0x3c900f52	0.01758543
40	0x3cf5b931	0.029995533
41	0xbc42e039	-0.011894279
42	0xbd08e72f	-0.0334236
43	0xbca7598f	-0.020428447
44	0x3cef98ce	0.029247668
45	0x3ca539dc	0.020169191
46	0xbc91aae3	-0.01778168
47	0x3cb1a198	0.0216835
48	0xbc7f85e9	-0.0155958915
49	0x3d12ba74	0.035822347
50	0xbb90e0b5	-0.0044213184
51	0x3c2b7762	0.010465475
52	0x3b8e195e	0.00433652
53	0x39669328	0.00021989329
54	0xbc3006c7	-0.010743803
55	0xbc7dbd96	-0.015487095
56	0xbcb9b9d0	-0.02267161
57	0x3aa0d9f6	0.0012271989
58	0x3cc9a369	0.024614053
59	0x3cf22c0a	0.029562015
60	0x3cd1a0fb	0.025589457
61	0x3cce7c89	0.025205867
62	0xbbd41669	-0.006472398
63	0xbd0a843e	-0.033817522
64	0x3d02855b	0.03186546
65	0x3cf55da1	0.029951872
66	0x3d05cebe	0.032667868
67	0xbcd5abff	-0.02608299
68	0xbcf0fb8e	-0.029416826
69	0xbc853a2b	-0.016263088
70	0xbd0f4737	-0.034980025
71	0x3d087291	0.033312384
72	0xbc339a96	-0.010962149
73	0x3c8a7a14	0.016903915
74	0x3cdaeba9	0.0267237
75	0x3cd0c978	0.025486693
76	0x3d0213ef	0.03175729
77	0x3a982e5b	0.0011610495
78	0x3ce950d2	0.028480921
79	0xbc9a5630	-0.018839926
80	0xbccc5944	-0.024944909
81	0xbc3b9aee	-0.011450512
82	0xbc62ff11	-0.013854758
83	0xbc61cbf2	-0.0137815345
84	0x3b53ce3c	0.003231897
85	0xbd0bc7e8	-0.034126192
86	0x3d0bd29d	0.034136403
87	0x3cf6dea6	0.030135464
88	0xbc9fef33	-0.019523239
89	0x3ca10699	0.019656466
90	0x3ca680b8	0.02032505
91	0xbc649bab	-0.01395313
92	0xbcb056d7	-0.021525783
93	0x3ba9e0bd	0.0051842616
94	0x3cb3a6f3	0.021930194
95	0x3ae4ffba	0.0017471232
96	0xbcc2fe7d	-0.02380299
97	0xbc397cd8	-0.011321269
98	0xbc9b717f	-0.018975018
99	0xbaecf7bb	-0.00180792
100	0x3c691a52	0.014227467
101	0x3b08068f	0.0020755862
102	0x3a897a2f	0.0010488684
103	0xbc199a6b	-0.009375195
104	0xba33ca34	-0.0006858439
105	0x3b17c0e7	0.002315575
106	0x3c0fd996	0.008779904
107	0xbbcb643f	-0.0062070186
108	0xbd0535b5	-0.032521922
109	0x3cb52837	0.022113902
110	0xbc8af327	-0.016961647
111	0xbb7fc084	-0.003902466
112	0x3cb770e0	0.02239269
113	0x3cc6289d	0.024189288
114	0xbc11e808	-0.008905418
115	0xbce0a90f	-0.027424363
116	0x3c91303d	0.017723197
117	0xbc9a489f	-0.018833457
118	0xbc919edb	-0.017775944
119	0x3c89f20e	0.016839053
120	0xbc86013e	-0.016358014
121	0x3c4a3e3e	0.012343941
122	0x3d0970aa	0.03355471
123	0xbcf090b4	-0.029365875
124	0xbce2086a	-0.027591903
125	0x3cfc5a3b	0.030804744
126	0x3c2571c5	0.010097926
127	0x39e93fc2	0.00044488726
128	0xbc33abce	-0.010966254
129	0xbcd45b70	-0.025922507
130	0x3b2601a5	0.002533057
131	0x3c9e6dc6	0.019339453
132	0xbc52afd6	-0.012859305
133	0x3ca464a7	0.020067526
134	0xbcdc1c64	-0.026869006
135	0xbca6625c	-0.020310573
136	0xbc634cf4	-0.0138733275
137	0xbc99e46a	-0.018785674
138	0x3c428c61	0.011874289
139	0xbbea2677	-0.0071456986
140	0xb9a95364	-0.00032296323
141	0xbcacad90	-0.021078855
142	0xbc39bc2b	-0.011336367
143	0x3c020ec5	0.007938092
144	0xbc560a06	-0.013063913
145	0xbcdb0604	-0.026736267
146	0xbb9cedc8	-0.004789088
147	0x3b086c8f	0.002081666
148	0xbd0d7e80	-0.034544468
149	0xbc5e03e8	-0.013550736
150	0xbc9745ae	-0.018465843
151	0x3ba29c71	0.004962497
152	0x3c0d349f	0.008618503
153	0xbcec6347	-0.028855933
154	0xbc810f84	-0.015754469
155	0xbb2ddfac	-0.0026531024
156	0x3cbbdd5b	0.022932699
157	0xbc60e3de	-0.013726203
158	0x3c71dad1	0.014761643
159	0xbc952494	-0.018205918
160	0xbba829d0	-0.0051319376
161	0xbbafa8c4	-0.0053606946
162	0x3bec45a4	0.0072104502
163	0x3cfeda28	0.031109884
164	0xbd0adcff	-0.033902165
165	0x3d0f4617	0.034978952
166	0xbb909013	-0.0044117062
167	0x3d0f10b7	0.03492805
168	0xbbd6b077	-0.006551798
169	0x3ca79a3b	0.020459285
170	0xbc150f4d	-0.009097886
171	0xbcb276a2	-0.021785084
172	0xbc1ef3b9	-0.009701663
173	0xbce3d12e	-0.027809706
174	0xbc0b0825	-0.0084858285
175	0x3b9e77e7	0.004836071
176	0xbbf9be38	-0.007621553
177	0xbd143da8	-0.036191612
178	0x3c8ea2c1	0.017411591
179	0xbc3cb963	-0.011518809
180	0xbb343e30	-0.0027502887
181	0xba835171	-0.0010018778
182	0x3c318e16	0.010837099
183	0xbcc97bbd	-0.024595136
184	0x3c63ad12	0.013896244
185	0xbca270d5	-0.019829193
186	0x3c09c63d	0.00840908
187	0xbcde63a1	-0.027147116
188	0xbce42f16	-0.027854484
189	0x3cbde2fa	0.02317952
190	0xbb3fb221	-0.002925046
191	0xbcab0127	-0.020874573
192	0xbd08588f	-0.03328758
193	0x3d10ecce	0.035382085
194	0x3c1a9d84	0.009436969
195	0x3bb4a0e3	0.0055123433
196	0xbb2386d0	-0.002495218
197	0xbcd1a484	-0.025591142
198	0x3c1072e6	0.008816456
199	0xbc858566	-0.01629896
200	0x3c7bed75	0.015376438
201	0x3c93d1f3	0.018044448
202	0xbcbae875	-0.022815922
203	0x3c18d59e	0.009328274
204	0x3d0f4743	0.03498007
205	0xbce5e2af	-0.028062193
206	0xbc50179f	-0.012700944
207	0x3bb2edfb	0.0054604984
208	0x3d048b5a	0.03235946
209	0xb9c04bed	-0.00036677663
210	0xbc66e4ef	-0.014092668
211	0xbbf17f6d	-0.0073699267
212	0x3b88a94a	0.0041705715
213	0x3a565570	0.00081761833
214	0x3ca33c9e	0.019926365
215	0x3cd8e32f	0.026475517
216	0x3cbc9a1e	0.023022708
217	0xbcfd9591	-0.030955108
218	0xbc3535b8	-0.011060171
219	0x3cb3b738	0.021937951
220	0x3d0c2f8a	0.034225024
221	0xbcf2afb4	-0.029624797
222	0xbcb2d6f1	-0.021831008
223	0xbaf5eca0	-0.0018762536
224	0x393c1d24	0.00017939933
225	0xbcc0afe2	-0.023521367
226	0x3c3579e0	0.011076421
227	0xbcc53068	-0.024070933
228	0xbcfa1025	-0.030525276
229	0xbd02d4a8	-0.031941086
230	0x3ba448fc	0.005013583
231	0x3b81c36a	0.0039600627
232	0xbce4acb8	-0.02791439
233	0xbd0974f9	-0.03355882
234	0xbcd07c56	-0.025449913
235	0x3ba25d98	0.004955005
236	0xbc227a93	-0.009916919
237	0x3be45af2	0.0069688493
238	0xbd141d5e	-0.03616082
239	0xbce79cd7	-0.02827303
240	0xbc99a4b5	-0.018755296
241	0x3b78e160	0.003797613
242	0x3ce6cf30	0.028174967
243	0x3cb7f90c	0.022457622
244	0x3c4822e3	0.012215349
245	0x3c9db8e6	0.019253206
246	0xbc8e5ed5	-0.017379204
247	0xbbaeab9c	-0.005330516
248	0x3ce54964	0.027989097
249	0x3d0e86b1	0.03479642
250	0x3c66672a	0.014062682
251	0xbcd32e45	-0.025778899
252	0xbcb38dc0	-0.021918178
253	0xbcd1b80e	-0.02560046
254	0x3c778219	0.015106701
255	0xbc7a372f	-0.015271946

base_model.model.transformer.h.2.attn.c_attn.lora_B.weight f4 [2304, 4]
0	0xb9a4903a	-0.00031387975
1	0x3995d42a	0.0002857757
2	0x39d1bebe	0.000400057
3	0xb9b23cc0	-0.00033996068
4	0xb9d02d64	-0.0003970667
5	0x39d10f62	0.00039875048
6	0x39d0df42	0.00039839192
7	0xb9d0b874	-0.0003981028
8	0x39c445a0	0.00037435908
9	0xb9cc57a6	-0.00038975215
10	0xb9c4865a	-0.00037484133
11	0x39d08243	0.00039769904
12	0xb9bd7fb8	-0.00036144047
13	0x392da991	0.00016561734
14	0x39c48598	0.00037483568
15	0xb9463b9b	-0.00018904956
16	0xb9c16080	-0.00036883727
17	0x39b8f605	0.00035278514
18	0x39ba2c6d	0.00035509784
19	0xb9c1aab0	-0.00036939
20	0xb9d06e72	-0.0003975514
21	0x3999a469	0.0002930493
22	0x38c85269	9.552093e-05
23	0x39cc8584	0.0003900939
24	0x39b2d804	0.0003411175
25	0xb9b23cb1	-0.00033996024
26	0xb9cf157a	-0.00039498118
27	0x39d197ad	0.00039976594
28	0xb9cbbfa8	-0.00038861972
29	0x39ae41d2	0.00033236906
30	0x39cba3ae	0.00038841128
31	0xb9cb41c3	-0.00038768174
32	0x39cdaeac	0.00039230788
33	0x396b9371	0.00022466273
34	0x39a5e3b2	0.000316409
35	0x39d18fa4	0.00039970607
36	0xb9caf618	-0.00038711797
37	0x39c6fd16	0.00037954067
38	0x39bfadd8	0.00036559883
39	0xb98f0236	-0.00027276733
40	0xb9cfd04c	-0.0003963731
41	0x39d01c7a	0.00039694068
42	0x39c8017c	0.0003814808
43	0xb9c3944e	-0.00037303794
44	0xb95be4ea	-0.00020970745
45	0xb9c55d86	-0.00037644448
46	0xb9c8d852	-0.00038308144
47	0x39ce8ce5	0.00039396356
48	0x39833143	0.0002502297
49	0xb930251a	-0.0001679849
50	0xb9a6970b	-0.00031774523
51	0x38a62a4e	7.923377e-05
52	0xb9cc7230	-0.00038994988
53	0x39c418a9	0.00037402406
54	0x39d0f89a	0.00039858074
55	0xb9cec93b	-0.0003944131
56	0x39ae5821	0.00033253527
57	0xb9cd5553	-0.00039164218
58	0xb9c90449	-0.000383409
59	0x39be0711	0.0003624489
60	0xb9969afc	-0.00028725702
61	0xb9bc1671	-0.00035874874
62	0xb9cc6dd4	-0.0003899174
63	0x39cb6e15	0.00038801195
64	0x39d0c1d6	0.0003981727
65	0xb9cd2b4e	-0.00039132911
66	0xb9b74c62	-0.0003496139
67	0x39d0c874	0.000398222
68	0x38d51770	0.00010160997
69	0xb9cfee76	-0.00039659784
70	0x3921af92	0.00015419562
71	0xb9b9fdc6	-0.00035475026
72	0x38ffc445	0.000121959056
73	0xb85af3b3	-5.2202213e-05
74	0x39cd17bf	0.0003911834
75	0xb9ceea8c	-0.00039466133
76	0x39c15eb9	0.00036882402
77	0xb9a5a4e3	-0.00031594103
78	0x39cdf26b	0.00039281262
79	0x39ce1969	0.00039310314
80	0x38911bce	6.919318e-05
81	0x39b358b3	0.00034207627
82	0xb9ae6fac	-0.00033271068
83	0x389bb7b7	7.4251955e-05
84	0xb9baeb62	-0.00035652058
85	0x39b7d07a	0.00035059807
86	0x39b73fc0	0.00034951977
87	0xb9467525	-0.00018926391
88	0xb8c77c1e	-9.512178e-05
89	0xb9cc2758	-0.00038939225
90	0xb9c70868	-0.000379625
91	0x39c88e1f	0.0003825286
92	0x39968a32	0.00028713193
93	0xb8a3203b	-7.778449e-05
94	0xb912e1b4	-0.00014007726
95	0x38c2e0fe	9.292549e-05
96	0xb998da70	-0.00029154448
97	0x394acdaf	0.00019340844
98	0x39c53084	0.00037610915
99	0xb985f951	-0.00025553492
100	0x39ce399a	0.00039334298
101	0xb9c2598e	-0.00037069287
102	0xb9c30281	-0.00037195164
103	0x39d11b29	0.00039883822
104	0xb9ce77bf	-0.000393806
105	0x3910070c	0.00013735535
106	0x39cc66fc	0.0003898664
107	0xb9ceb818	-0.00039428542
108	0x39cdddfc	0.00039266038
109	0xb91a27d3	-0.0001470142
110	0xb9d000af	-0.0003967336
111	0x39cabdb6	0.00038669788
112	0xb9bd1f12	-0.00036072038
113	0xb8cd9418	-9.802746e-05
114	0xb8ffc053	-0.00012195171
115	0x38dd8718	0.000105632644
116	0x39cda16c	0.00039220916
117	0xb9d05e8e	-0.000397433
118	0x39b06ca1	0.0003365027
119	0x39d16248	0.00039936812
120	0xb9c06204	-0.0003669412
121	0xb8fed89e	-0.00012152012
122	0xb9c56f23	-0.0003765757
123	0xb8ba7159	-8.890284e-05
124	0xb9cd9f50	-0.00039219344
125	0x39d08174	0.00039769302
126	0x39b1cbf8	0.0003391204
127	0xb9cafe7c	-0.00038718048
128	0x391746bb	0.00014426831
129	0x39cdaa9d	0.00039227764
130	0xb847d7be	-4.7646223e-05
131	0xb9c27def	-0.0003709639
132	0xb9c43bb7	-0.00037428524
133	0xb9377abc	-0.00017497962
134	0xb996d938	-0.0002877207
135	0xb9239dd7	-0.00015603691
136	0xb9cb8663	-0.00038819303
137	0x39cb4d0f	0.0003877659
138	0x39cef42e	0.0003947331
139	0xb9c41deb	-0.00037406324
140	0xb9cbc473	-0.00038865543
141	0x39b473ab	0.00034418455
142	0x39d1360f	0.00039903863
143	0xb9c79456	-0.00038066757
144	0xb9b4f3b2	-0.00034513843
145	0x39bc1401	0.00035873058
146	0x38a2edb0	7.769035e-05
147	0xb8c3458f	-9.311281e-05
148	0xb9a8e462	-0.00032213615
149	0xb9d1a4cb	-0.00039986367
150	0xb9d1167a	-0.00039880333
151	0x39cc75f6	0.000389978
152	0x39b2963e	0.00034062745
153	0x39ce78d0	0.00039381394
154	0xb90661b4	-0.00012815633
155	0x383b0953	4.4592958e-05
156	0x38f05c72	0.00011461311
157	0x39c986ce	0.00038438145
158	0x39d03359	0.0003971111
159	0xb9d1567e	-0.00039928028
160	0x39c4bf00	0.0003752634
161	0x39a641c5	0.0003171099
162	0x39c80ca7	0.000381564
163	0xb9c824d0	-0.000381744
164	0x39d1e893	0.00040036868
165	0xb9cb6304	-0.0003879295
166	0xb9d1d798	-0.00040024216
167	0x39ca7fce	0.00038623664
168	0xb9ab6d4b	-0.0003269709
169	0xb9d1bf9e	-0.00040006352
170	0x38884ab0	6.498897e-05
171	0x39b8a294	0.00035216345
172	0x39ce7df8	0.00039385236
173	0xb9cd8aac	-0.00039203966
174	0x39d10be5	0.00039872449
175	0x39d0088a	0.00039679214
176	0xb9cc6f56	-0.00038992864
177	0x39cc46d0	0.00038962672
178	0x39ce96ea	0.00039403822
179	0xb9c10fe8	-0.0003682368
180	0xb9c1aed3	-0.00036942083
181	0x39d175b0	0.0003995127
182	0x39ce8606	0.00039391237
183	0xb9ced489	-0.00039449733
184	0x39c99d90	0.000384551
185	0xb9ac1fa2	-0.00032829965
186	0xb9b5818e	-0.00034619536
187	0x39c6df86	0.0003793204
188	0xb9938aab	-0.0002814134
189	0xb9c9b708	-0.00038474076
190	0x3844a31b	4.6881945e-05
191	0x39cd1bd1	0.00039121372
192	0xb8b4e8ee	-8.6264554e-05
193	0x39c7ecc3	0.0003813264
194	0x3931cf72	0.00016957315
195	0x39c5e494	0.00037745072
196	0xb9c87d6a	-0.00038240413
197	0x38f5f87a	0.00011728793
198	0xb9b1451d	-0.00033811564
199	0x39cf9242	0.00039591087
200	0xb883bfda	-6.282302e-05
201	0x39ca47df	0.0003858199
202	0xb90e1e03	-0.00013553356
203	0xb9cd5841	-0.000391664
204	0xb9c07f7b	-0.00036716074
205	0x39cdc171	0.00039244772
206	0x39b8eff1	0.00035273985
207	0xb9854456	-0.0002541865
208	0x39cf4e72	0.00039540563
209	0x39a9c220	0.00032378826
210	0x39cd7c6e	0.00039193354
211	0xb9c39721	-0.00037305898
212	0x38aa5713	8.1224505e-05
213	0x39c4c798	0.00037532742
214	0xb9d17dfe	-0.00039957458
215	0xb99ff00b	-0.0003050569
216	0xb92f9a63	-0.00016746814
217	0xb9c57fd8	-0.0003767002
218	0xb9cb6de2	-0.00038801046
219	0x39ccc6c6	0.0003905801
220	0x39c5f459	0.0003775682
221	0xb9cf9a9a	-0.00039597304
222	0xb9b3bdd5	-0.00034282976
223	0x39cc07d4	0.00038915745
224	0x39a35c2b	0.00031158453
225	0xb9c9f3e8	-0.00038519432
226	0x39c948c5	0.00038391925
227	0x3996cd02	0.00028762972
228	0x39c2368d	0.00037043207
229	0xb8d29242	-0.00010040823
230	0x39ac7c0d	0.00032898822
231	0x39d1020b	0.0003986511
232	0xb9cf1967	-0.00039501043
233	0x39cc0edd	0.00038920986
234	0x399b3f63	0.0002961113
235	0xb9c91ad2	-0.0003835769
236	0xb9a67492	-0.0003174884
237	0x39b628e0	0.000347442
238	0x399e9d47	0.0003025329
239	0xb983fb1a	-0.00025173352
240	0x3864a2dd	5.4511114e-05
241	0x39d1b25b	0.00039996472
242	0x39cf080e	0.00039488118
243	0xb9c754b5	-0.0003801935
244	0x39ce5ac6	0.00039359013
245	0xb9cafe37	-0.00038717847
246	0xb9d08659	-0.00039772948
247	0x39d17abb	0.00039955028
248	0xb8e8bdde	-0.000110979876
249	0x39b23fe0	0.00033998396
250	0xb94fe843	-0.00019827583
251	0x39cdd2d2	0.0003925772
252	0x398a6d5d	0.00026402893
253	0x39c84376	0.00038197235
254	0x39c8d403	0.00038304934
255	0xb9c7ce00	-0.0003810972

base_model.model.transformer.h.3.attn.c_attn.lora_A.weight f4 [4, 768]
0	0x3c8ae8f6	0.016956788
1	0x3cdcdc75	0.02696059
2	0x3b4a9909	0.003091397
3	0xbc99608b	-0.018722793
4	0x3cbd73a2	0.023126427
5	0xbb9d2d84	-0.0047966857
6	0xbccd4685	-0.02505804
7	0x3ce4cfa7	0.027931048
8	0xbbdce479	-0.0067411033
9	0xbcc328f4	-0.023823239
10	0xbbd911d1	-0.0066244383
11	0xbcb40fd4	-0.021980204
12	0x3a2361a3	0.00062325055
13	0xbbfbe698	-0.007687401
14	0x3c11abb0	0.008891031
15	0xbc87d245	-0.016579757
16	0xbcde1d6e	-0.027113643
17	0x3ce25fd7	0.02763359
18	0xbb910322	-0.0044254223
19	0xbc1001a4	-0.008789454
20	0xbc9e97ca	-0.019359488
21	0xbc3dd566	-0.011586523
22	0x3cf56659	0.02995603
23	0xbba0effc	-0.004911421
24	0xbc68c9d2	-0.014208274
25	0xbc2dadf0	-0.010600552
26	0x3b4f2ecc	0.0031613586
27	0xbc7e42ac	-0.0155188255
28	0xbcd3252b	-0.025774559
29	0xbbb0551f	-0.005381241
30	0x3c4bad8c	0.0124315135
31	0x3ba1d65b	0.0049388832
32	0xbcbd6a77	-0.023122055
33	0xbc1757b0	-0.009237215
34	0x3cba0bd1	0.022710713
35	0xbd1284f5	-0.03577133
36	0x3cf8fad6	0.030393045
37	0x3bc77fe4	0.006088244
38	0xbcd251fb	-0.025673857
39	0x3d035c68	0.032070547
40	0x3bbb61e2	0.0057184556
41	0x3c0a3d44	0.008437458
42	0xbc654ff0	-0.013996109
43	0xbcb7b44a	-0.022424836
44	0x3c3e9103	0.011631253
45	0xbc2a5d6a	-0.010398248
46	0xbcdfe67a	-0.02733158
47	0x3cd29dde	0.025710043
48	0xbc8c698b	-0.01714017
49	0xbc76ce56	-0.015063843
50	0x3c0dbd0a	0.008651027
51	0x3d0d86fa	0.03455255
52	0xbbef01af	-0.007293902
53	0x3c9cc43b	0.019136539
54	0xbcc7373a	-0.024318326
55	0xbc5810ae	-0.0131875705
56	0x3cfcc5ea	0.030856092
57	0xbce6c5fb	-0.028170576
58	0x3ba09445	0.0049004876
59	0x3ce7b2ac	0.02828344
60	0x3cc0e72d	0.023547733
61	0x3ced0ef4	0.028937794
62	0xbbfee6a1	-0.007778958
63	0xbc44eff1	-0.012020097
64	0x3d023c70	0.03179592
65	0x3c90a6c5	0.017657647
66	0x3cd563b4	0.026048519
67	0xbce1e739	-0.027576076
68	0x3c8d4cfc	0.017248623
69	0x3cf974ba	0.030451167
70	0xbcb7f5dc	-0.022456102
71	0xbd04e4d6	-0.032444797
72	0x3c029c75	0.007971873
73	0xbc67d950	-0.014150932
74	0x3ca8086e	0.020511832
75	0xbcac614c	-0.021042489
76	0x3cb32471	0.021867963
77	0x3bd7ebb8	0.006589379
78	0x3c87cd6f	0.01657745
79	0xbc2162fd	-0.009850261
80	0xbd12309a	-0.03569088
81	0x3cb58305	0.022157202
82	0xbd131963	-0.035912883
83	0xbd01ef8a	-0.031722583
84	0xbc209d61	-0.009803147
85	0xbcc6a4d9	-0.024248527
86	0x3cb2dbb0	0.02183327
87	0xbcb5f985	-0.022213707
88	0xbaf13591	-0.0018402805
89	0xbd10d1a4	-0.03535618
90	0xbc3fb911	-0.011701838
91	0x3c4efb11	0.012633101
92	0x3ab9a1fe	0.0014162657
93	0xbd08a396	-0.033359133
94	0xbc47e895	-0.012201448
95	0xbcbb77bb	-0.02288424
96	0xbcfe7dbb	-0.031065812
97	0x3cceaea6	0.025229763
98	0x3cb2e3cd	0.02183714
99	0x3c68b926	0.014204299
100	0xbcbad6f5	-0.022807578
101	0xbc78bb7a	-0.015181417
102	0x3af36ba7	0.0018571512
103	0x3c87d044	0.016578801
104	0xbd0a7f92	-0.033813067
105	0x3d0f2eef	0.03495687
106	0xbcea4ff5	-0.02860258
107	0x3cd8c6d3	0.026461994
108	0xbd097aaf	-0.033564266
109	0xbc825465	-0.015909383
110	0xbbbb6c51	-0.0057196994
111	0xbcc538c1	-0.024074914
112	0xbb839180	-0.0040151477
113	0xbd07b9ee	-0.0331363
114	0xbc2b6b89	-0.01046265
115	0x3d0b6b44	0.034037843
116	0x3c13d429	0.009022751
117	0xbc8743cb	-0.016511818
118	0x3c0772d6	0.008267125
119	0x3b90fea5	0.0044248872
120	0x3d10a4f6	0.03531357
121	0x3cbaa949	0.0227858
122	0x3b0f8faa	0.0021905699
123	0x3b15c06f	0.0022850295
124	0x3cd02a8e	0.025410917
125	0xbcb32fb0	-0.021873325
126	0x3c826281	0.015916111
127	0xbad1c45d	-0.0016003955
128	0xbc22b015	-0.009929677
129	0xbcac56eb	-0.02103754
130	0xbcda6833	-0.026661014
131	0xbc4ef740	-0.012632191
132	0xbcd2cd1e	-0.025732573
133	0x3cd6223f	0.026139377
134	0xbcd5c835	-0.026096443
135	0x3c7776fa	0.01510405
136	0x3d0b5389	0.034015212
137	0xbcbd587f	-0.023113487
138	0x3d06a00a	0.03286747
139	0xbc967e34	-0.018370725
140	0x3cf392ef	0.02973315
141	0xbd13ea7f	-0.036112305
142	0x3c3b61f0	0.011436924
143	0x3cd2279d	0.025653655
144	0x3ce6c27b	0.028168907
145	0xbb3019f5	-0.002687094
146	0xbb27857b	-0.0025561738
147	0xbc3bc106	-0.011459595
148	0xbcd182b0	-0.025575012
149	0xba15cb16	-0.0005714161
150	0xbcaa24fb	-0.020769587
151	0x3cd04478	0.025423273
152	0x3cae3674	0.0212662
153	0xbb7d4ba5	-0.0038649824
154	0x3c93aaa4	0.018025704
155	0xbc2f1473	-0.010686028
156	0xbc295924	-0.010336194
157	0x3bb97b0b	0.00566042
158	0xbd127885	-0.035759468
159	0xbc41ba3a	-0.011824185
160	0x3b588670	0.0033039115
161	0x3c9828b5	0.018574098
162	0xbc32f200	-0.010921955
163	0x3b4d4894	0.0031323778
164	0x3af1af06	0.0018439002
165	0xbc830162	-0.01599187
166	0xbba35e65	-0.004985618
167	0xbcacaff7	-0.02108
168	0x3d016920	0.031594396
169	0x3cf861ec	0.03032013
170	0x3bbbff70	0.0057372376
171	0x3ccbf414	0.024896659
172	0x3b4df19f	0.0031424535
173	0x3cd430f3	0.025902247
174	0xba8b811d	-0.0010643337
175	0xbc5dde36	-0.013541749
176	0x3c9f0e09	0.019415872
177	0x3d035a93	0.0320688
178	0x3b423b1b	0.002963728
179	0xbcb9c268	-0.022675708
180	0x3c88d942	0.01670516
181	0x3cd53515	0.026026288
182	0x3d10d1fc	0.035356507
183	0xbcdb755a	-0.026789356
184	0xbd063dcf	-0.03277379
185	0xbce10454	-0.027467884
186	0xbce556ae	-0.027995434
187	0x3c2c0549	0.010499307
188	0xbb5c3d71	-0.0033605958
189	0x3c80d04f	0.01572433
190	0xbd01cb8b	-0.031688254
191	0x3cdcef26	0.026969504
192	0xba9ced59	-0.0011972591
193	0xba046542	-0.0005050489
194	0xbc6d3787	-0.014478571
195	0x3c0b009e	0.008484034
196	0xbc77393c	-0.015089329
197	0x3c4207d0	0.011842683
198	0xbcac45cf	-0.021029381
199	0x3c80b3fa	0.01571082
200	0xbcf0603d	-0.029342765
201	0x3c9731c3	0.018456345
202	0x3cce25ee	0.02516457
203	0x3cfc6725	0.030810902
204	0xbd0ce5c5	-0.034398813
205	0xbd02a41b	-0.031894784
206	0xbce45c7a	-0.027876128
207	0x3b9d2ac1	0.0047963564
208	0xbcc62e45	-0.024191985
209	0x3c16f642	0.009213986
210	0x3c75e8fa	0.015009159
211	0xbc929013	-0.017890966
212	0xbc646c1f	-0.013941794
213	0xbd0ee136	-0.034882747
214	0x3c81af21	0.015830578
215	0x3c6e81a6	0.014557278
216	0x3a63df10	0.00086926017
217	0x3cbd34a3	0.023096388
218	0x3cb0037e	0.02148604
219	0x3c835082	0.0160296
220	0xbbfdcb06	-0.0077451495
221	0xbca7af11	-0.02046922
222	0xbccbcb27	-0.024877144
223	0x3c744857	0.014909825
224	0x3bf4d5c7	0.0074717733
225	0x3ca809a3	0.020512408
226	0x3d070f48	0.032973558
227	0xbcef5371	-0.029214593
228	0xbbcc54b6	-0.0062356843
229	0xbb4c5f46	-0.0031184717
230	0xbccbb2d1	-0.02486554
231	0x3cb77c4f	0.022398142
232	0xbbf22a94	-0.0073903296
233	0xbcb2283c	-0.0217477
234	0xbbe92a5f	-0.0071156467
235	0xbcd1e308	-0.025620952
236	0x3c40fcef	0.011779054
237	0xbc89432f	-0.016755668
238	0x3c2c9f42	0.010536017
239	0xbc813955	-0.015774408
240	0x3cf7bcf9	0.030241476
241	0x3ce04d13	0.027380502
242	0x3c80055c	0.015627556
243	0xbd0f3cea	-0.0349702
244	0x3c3d95a8	0.011571325
245	0x3c97f6b4	0.018550254
246	0x3c279de2	0.010230513
247	0xbcacaa55	-0.021077314
248	0xbce486ee	-0.02789637
249	0x3c583cc9	0.013198086
250	0xbccd9884	-0.02509714
251	0xbc6c28e6	-0.014414048
252	0xbabb99fe	-0.0014312861
253	0x3c9c4755	0.019076983
254	0x3cd088b3	0.025455808
255	0xbc408d69	-0.011752465
